checkpoint/EffiNet.ckpt (torch_old, 294428 bytes, 103 tensors)

module.firstconv.0.weight f4 [24, 3, 3, 3]
000000 11 6e b8 bd 99 87 55 bd 06 92 92 be 4b 66 35 be
       -0.090053685 -0.05213127 -0.28627032 -0.17714803
000010 e6 6d de bd 3e 83 b0 3d 65 6f b2 3d 9b 10 87 3e
       -0.10860805 0.086187825 0.08712653 0.26379856
000020 71 74 1f 3e dd 65 b3 ba ec 66 00 be c3 ca bf bd
       0.15571763 -0.0013686974 -0.12539262 -0.093648456
000030 e0 21 5e be 73 2b c9 bd b4 10 fe 3b 11 0a 87 3d
       -0.2169261 -0.098227404 0.007753456 0.06593717
000040 ce 1d 58 3e 1e be 9c 3e fe e3 80 be 90 76 7b be
       0.2110512 0.30613798 -0.25173944 -0.24556947
000050 b9 9e cb bd ed f9 a0 3d 19 90 94 bd 6c 12 1c 3e
       -0.09942383 0.078601696 -0.07254047 0.15241402
000060 37 ba 41 3b 41 2d 04 3e 10 0b a6 3e 8e 0a 65 be
       0.0029560456 0.12907888 0.32430315 -0.22367308
000070 51 4c 46 be ea 28 1b be 71 67 29 be c0 c1 e5 3d
       -0.1936505 -0.15152326 -0.16543366 0.112185955
000080 d7 d9 33 be 77 ab 03 be 8a 20 1a be e7 69 4f be
       -0.17563568 -0.12858377 -0.15051475 -0.20255242
000090 a2 c6 88 bd 7b 51 92 3d dd dc db bd 4a 3f 29 3e
       -0.06678511 0.071444474 -0.10735486 0.16528049
0000a0 42 94 1a 3c a4 76 1b be 1d 43 4e 3e 76 5d 8f bd
       0.0094347615 -0.15181977 0.20142789 -0.07000248
0000b0 b2 05 92 bd bb dc 82 3d 37 00 0b 3e 92 ab 05 3e
       -0.071299925 0.06389757 0.135743 0.1305373
0000c0 67 32 30 3d ed a7 fa b8 b9 df 30 3e f1 eb be 3e
       0.043016817 -0.000119522076 0.17272843 0.37289384
0000d0 e9 c1 15 3e 6c d0 14 3e 86 9d c0 3e f6 c9 9d 3c
       0.14624752 0.14532632 0.3762018 0.019261342
0000e0 8c fe 22 bd fd 88 8f bc 78 db 37 be 62 8f b8 be
       -0.039793536 -0.017521376 -0.17954814 -0.36046892
0000f0 50 f5 88 3c 06 ee 1b be 72 1e de be e3 0b d0 3e
       0.016718537 -0.15227517 -0.43382603 0.4063407
000100 a3 de c5 3e b2 9d 2a 3c 81 8b 9a 3e 9a 19 36 3e
       0.3864642 0.010413574 0.30184558 0.17783204
000110 42 31 82 bc 19 63 5f 3e 36 3c 80 be ac 49 8d be
       -0.015892629 0.21815147 -0.25045937 -0.2759527
000120 43 9e 83 3e 30 7b a2 3e c6 85 30 3e b0 4d 84 3e
       0.25706682 0.3173461 0.1723853 0.2584052
000130 70 16 b0 3b 3d 87 bd be 04 d5 be bd 75 a3 af be
       0.0053737685 -0.3701724 -0.09317973 -0.34304395
000140 92 06 f1 be ff 34 96 3e 56 8b 65 3e 61 02 b3 bd
       -0.47075325 0.29337308 0.22416434 -0.08740688
000150 7c e6 8b 3d d0 a9 ac bd 1f 4b 97 bd 99 8b 02 be
       0.06831071 -0.08430827 -0.07387375 -0.12748565
000160 b7 bf 69 bd 9e 73 e4 bd fc 98 33 3e 74 e3 55 3e
       -0.0570676 -0.11154865 0.17538828 0.20887548
000170 c4 df 12 3e f7 d7 ef 3d 3e 3b 48 be 93 7b 4a be
       0.14343172 0.11711114 -0.19553849 -0.19773702
000180 c7 63 80 bc ff 29 b5 bd 19 cd f9 bd a4 36 2f bc
       -0.015672578 -0.08845901 -0.121973224 -0.01069418
000190 da d6 5b 3e 6c 8c 25 3e 9d b3 bd 3c 5d b6 bf bd
       0.21468678 0.16166848 0.023156935 -0.09360955
0001a0 28 6c 57 be 19 f3 71 3d 37 74 50 be a4 b5 88 bd
       -0.21037352 0.059069727 -0.20356832 -0.0667527
0001b0 21 48 fb 3d 69 98 3b bc 5c 12 ab bd e3 73 2b 3e
       0.12269617 -0.011449912 -0.08353111 0.16743426
0001c0 f7 b2 87 be d8 92 5f bd d7 ab 84 3e 60 b8 c8 bd
       -0.26503727 -0.0545834 0.25912353 -0.09800792
0001d0 49 b6 80 bd 0d d5 9e 3d 29 7e 8d bc ae 73 93 3d
       -0.06284768 0.0775548 -0.017272072 0.071997985
0001e0 0e ad b2 3d 70 fc a5 bd 05 b0 4a be f1 ef 4e 3e
       0.08724414 -0.08104789 -0.19793709 0.20208718
0001f0 ac 14 8c bd d3 ce 06 bd 27 b9 2a be 83 d0 85 bd
       -0.0683988 -0.032912087 -0.16672193 -0.06533911
000200 59 69 0c 3d 2c dc 95 be db 69 e8 3d c1 6d 07 3e
       0.034280155 -0.2926954 0.11348315 0.13225462
000210 4b 75 9a be 22 33 64 3e f0 37 81 3e d7 19 ab bd
       -0.30167612 0.2228513 0.2523799 -0.08354538
000220 d4 72 64 be ce eb 55 be d1 06 9c be ef 35 d9 3e
       -0.22309428 -0.20890734 -0.3047395 0.4242396
000230 ff 6b af 3e ef 78 6a be 91 d0 a4 3e 19 e4 92 3d
       0.34262082 -0.22897695 0.32190374 0.071724124
000240 1f 68 e0 bd 48 8e 9f bd 82 4f 0d bd 4b 9c 8a bd
       -0.109573595 -0.0779081 -0.034499653 -0.06768092
000250 db 48 81 3e 74 57 15 bc 98 c5 94 bd 25 37 42 3e
       0.25250897 -0.009115089 -0.072642505 0.18966348
000260 1f 5f 34 bd 25 9a 82 3e e7 7d 53 3e c4 57 6d 3e
       -0.044036027 0.25508228 0.20653497 0.23178011
000270 d1 a6 ae 3e 28 9b 52 bf bb 50 b8 be ef 43 e8 3e
       0.34111646 -0.82268 -0.35999092 0.4536433
000280 f6 c2 e8 be d7 b7 d7 3b 80 f1 90 3d ad 6e cc 3d
       -0.45461243 0.0065831947 0.070773125 0.09982047
000290 94 2e 33 3e e3 8e e0 bd 3e 5d 05 be f8 2b 34 3e
       0.17498237 -0.109647535 -0.1302385 0.17594898
0002a0 78 a5 ac be ca cf 94 be 1a f0 65 3d e8 c9 96 3d
       -0.33719993 -0.2906478 0.05613718 0.07362729
0002b0 81 9d ed 3e ef 96 d1 3e ee 1c ca be 19 bb c0 3d
       0.46409228 0.40935466 -0.39475197 0.09410686
0002c0 e8 8e 8a 3e a5 46 b2 be e2 58 1c be 3a 57 19 be
       0.27062154 -0.34819523 -0.15268281 -0.1497468
0002d0 7e 4a 10 3e ee 7b 1e 3e 9b b5 a2 3e 4f ab 28 be
       0.14090917 0.15476963 0.3177918 -0.16471599
0002e0 e4 ca 02 3a 3a 4f 59 3e c9 89 54 be c4 94 92 be
       0.00049893395 0.21221629 -0.20755686 -0.28629124
0002f0 d2 a7 2a be 02 02 20 3e dd e1 94 3e 2f 87 88 3e
       -0.16665581 0.15625766 0.2907857 0.26665637
000300 97 85 f9 bd d3 bc d3 3d 67 22 f0 bc 99 16 9f bd
       -0.12183683 0.1033875 -0.02931328 -0.07767982
000310 e5 0d 6a bd 36 4d 0b 3e a2 82 08 be 60 66 0c 3e
       -0.057142157 0.13603672 -0.13331082 0.13710928
000320 df 61 b8 3d 4e 58 78 3b b8 96 5c bd 99 3e c7 bc
       0.090030424 0.003789443 -0.053854674 -0.024321841
000330 a6 e4 61 be d1 5a 1a 3e c2 d6 37 3d 45 24 28 3e
       -0.22059879 0.15073706 0.044882543 0.16420086
000340 28 d9 f5 3c 49 f5 1f bd 40 4d 4a bd 8d b9 99 bd
       0.030010775 -0.03905228 -0.049390078 -0.07506094
000350 87 a0 b7 bc b2 9b 1a be 08 79 15 be ad d1 b2 bd
       -0.022415413 -0.15098456 -0.14596951 -0.08731399
000360 5c 15 4f be 1f e3 05 be 9d c5 91 3d 5d b8 30 be
       -0.20222992 -0.13074921 0.0711777 -0.17257829
000370 ae db 8b 3d 1f 47 a0 3e 27 4a fe bc 79 de c5 3c
       0.0682901 0.3130426 -0.031041218 0.024153935
000380 5f c3 f1 bc a9 be 47 3e 9c 1f 38 3c f2 df c4 bc
       -0.029512106 0.19506325 0.011238005 -0.024032567
000390 52 a3 78 3d b7 57 5f 3e 61 cf 81 3e 80 c9 00 3e
       0.06070263 0.21810804 0.2535353 0.12576866
0003a0 29 aa 26 3e a3 5b e3 3e 65 3f 0e 3d e0 0a 77 be
       0.16275848 0.4440585 0.034728426 -0.24125242
0003b0 03 30 11 be 1f 36 86 be a7 56 40 be 11 e9 84 bd
       -0.14178471 -0.26213166 -0.18783055 -0.064897664
0003c0 4b 7f 1e be df 35 3c bd c4 fb 3f be 5c bd 86 3e
       -0.15478246 -0.045949813 -0.18748385 0.26316345
0003d0 99 b0 ac 3e ac d1 52 bd 6e a1 50 3e c5 06 28 be
       0.33728483 -0.05146949 0.2037408 -0.16408832
0003e0 c4 6f 7c bd 5f 8d b1 bd 25 4c 52 be 6e 2a a8 bd
       -0.061630026 -0.086695425 -0.2053686 -0.08211218
0003f0 e8 ad c3 3e 73 e3 fd 3d fa 05 d2 bd ea 24 6b bd
       0.38218617 0.12396898 -0.10255046 -0.05740825

module.firstconv.0.bias f4 [24]
000000 d9 c3 1c be 4e b0 3d bd ef 5d d6 3d 2d e3 a0 bd
       -0.15309085 -0.046310715 0.10467135 -0.0785583
000010 2f 73 25 3e b1 88 07 be 17 76 25 be a6 99 b1 bd
       0.1615722 -0.13235737 -0.16158329 -0.08671884
000020 69 bc fe 3c 21 6f 35 3e ed 3a bc bd c6 c3 8c 3d
       0.0310957 0.17718174 -0.09190927 0.06873278
000030 fb 8c 45 bd bd e2 2a bd 6a e6 10 3e 38 b8 18 be
       -0.048230153 -0.04172014 0.14150396 -0.14914024
000040 f5 78 a7 3c 1e 40 39 3e 2b 8b d8 bc c8 03 19 3e
       0.020443419 0.18090865 -0.026433548 0.14942849
000050 33 9d 72 bd e6 a3 1e 3e dc 9e 3e be c4 2a e3 bc
       -0.059231948 0.1549221 -0.18615288 -0.027730353

module.firstconv.1.weight f4 [24]
000000 0e dc 7f 3f 71 e4 6d 3f c2 2e 80 3f 21 ce 62 3f
       0.9994515 0.929267 1.0014269 0.8859578
000010 f9 79 7e 3f 42 74 62 3f f3 36 6b 3f 33 6b 7a 3f
       0.99404866 0.88458645 0.9188072 0.97819823
000020 4b e3 6f 3f 73 96 65 3f 09 1e 79 3f 93 04 7e 3f
       0.93706197 0.8968269 0.97311455 0.9922573
000030 0d 06 80 3f 89 da 60 3f 7c 0b 7e 3f 1c ce 7e 3f
       1.0001847 0.8783346 0.99236274 0.9953325
000040 87 8c 7c 3f be 11 80 3f 58 1d 62 3f 27 70 6b 3f
       0.9865193 1.0005414 0.88326025 0.91968006
000050 e4 9f 7e 3f 0c 0f 79 3f 1e 18 7b 3f 84 38 72 3f
       0.99462724 0.97288585 0.98083675 0.94617486

module.firstconv.1.bias f4 [24]
000000 fa 92 5f bd 10 9b be 3e ea 50 b3 3c 71 24 ee 3e
       -0.054583527 0.37227678 0.021889169 0.46512178
000010 99 a3 e6 3d d8 ad ef 3e f0 4f cc 3e b4 55 58 3e
       0.112616725 0.4681232 0.39904737 0.21126443
000020 e8 8e b7 be e1 0f e4 3e 17 55 72 be c6 50 02 3e
       -0.35851216 0.44543365 -0.23665272 0.12726125
000030 c1 40 19 3d d1 3f f7 3e 2d 50 08 3e db fc cf 3d
       0.03741527 0.48290876 0.13311835 0.1015565
000040 92 50 2b 3e b9 0e 8c bc e1 69 f3 be 4c 9b ca 3e
       0.16729954 -0.017096864 -0.47541717 0.39571607
000050 33 cb df 3d 7f 2f 74 3e b0 73 4b 3e 56 d7 a7 3e
       0.10927429 0.23846243 0.1986835 0.32781476

module.firstconv.1.running_mean f4 [24]
000000 6f 7d 3d be 56 1e bd bd 93 62 77 be 16 13 de bd
       -0.1850488 -0.09234302 -0.24158697 -0.10843484
000010 71 62 01 3e d5 ca 12 be be be 84 be 9b 1c 8f 3c
       0.12635209 -0.14335187 -0.25926775 0.017469695
000020 4b da c6 be 34 27 d1 3e 22 a9 bf be 51 7f 72 3d
       -0.3883842 0.40850222 -0.37433726 0.05920345
000030 f2 9b a7 bd 6d b7 af 3e 0e 12 e1 3e 7f 72 1d be
       -0.08184041 0.3431963 0.43959087 -0.15375708
000040 09 f2 ac bd 41 0c 2b bb 38 b6 fa be 02 13 fc 3d
       -0.08444602 -0.0026099833 -0.48967147 0.12308313
000050 95 00 65 be a3 ce b8 ba 34 5b 1f be 49 33 f8 bd
       -0.22363503 -0.0014099668 -0.15562135 -0.12119157

module.firstconv.1.running_var f4 [24]
000000 04 41 89 3d 48 80 95 3d 2f 38 7d 3e cc 13 40 3d
       0.06701854 0.07299858 0.24728464 0.04689388
000010 f4 61 b7 3b bf 5c e4 3b 09 30 2b 3e 8d 30 4a 3d
       0.0055963937 0.006969064 0.16717543 0.049362708
000020 f8 39 41 3e e9 ae e8 3d 98 a7 90 3d 09 32 29 3b
       0.1886977 0.113614865 0.07063216 0.0025817177
000030 77 1b 83 3d cf 2b 22 3e 7a 60 09 3e d2 24 8d 3d
       0.06401723 0.15837024 0.13415709 0.068917885
000040 6c cb 91 3d c2 d8 6a 3d eb 61 4e 3e d5 b2 2b 3d
       0.07118878 0.057335623 0.2015454 0.041918594
000050 46 18 cf 3c 67 f7 f4 3d 6e 99 e7 3d be 0f d1 3d
       0.02528013 0.11961251 0.11308561 0.10208081

module.blazeBlock.0.mix_branch1.0.mixed_depthwise_conv.0.weight f4 [12, 1, 3, 3]
000000 ef 85 09 be f0 35 be 3d 46 7c ad 3c 86 16 91 3e
       -0.13429998 0.092876315 0.021177422 0.28337497
000010 d3 f3 06 3e 1c 87 17 3d ae 86 6e 3e fc a6 c0 3a
       0.13178949 0.036994085 0.23293564 0.0014698203
000020 7b 0b 86 3e 82 88 dd be 00 68 22 be a7 30 73 be
       0.26180634 -0.4326821 -0.15859985 -0.23749028
000030 9e 07 26 3e e0 ff 9c 3e 72 bf 4c ba 09 a4 24 be
       0.16213843 0.30663967 -0.000781051 -0.160782
000040 03 8f d1 3e e2 03 8c 3e 13 86 c2 bc c4 11 3b 3e
       0.40929422 0.27346712 -0.023745572 0.18268496
000050 5c d0 db 3d 42 4a f1 3e a3 72 4a 3e 5e 38 b2 be
       0.10733101 0.47126967 0.19770293 -0.3480863
000060 51 2a 30 3e 7f f5 82 be 34 70 3a bd 8c 5f f6 3d
       0.17203642 -0.25577924 -0.04551716 0.12029943
000070 76 7e c1 be 68 17 6e 3d 49 f9 d3 be 3f a3 30 3e
       -0.37791795 0.05812779 -0.41401127 0.17249773
000080 3b cc 87 3e f2 98 41 bd d2 cf ed 3d fa 4d 1a 3e
       0.26523003 -0.047265 0.11611904 0.15068808
000090 fa 15 e2 bd 9a 1d f2 3e 8c 3a 9c 3b 96 fc 90 bc
       -0.11039348 0.4728821 0.0047677215 -0.017698567
0000a0 8e 70 ba be 1b 0c 66 be 8d 95 4e 3e b8 a8 da bd
       -0.36413997 -0.22465555 0.20174237 -0.10676712
0000b0 9c f2 fb 3c 6b e2 07 be df be fc 3e 79 c2 e3 3d
       0.030755334 -0.13269965 0.49364373 0.11121077
0000c0 b9 40 60 3e 4b e2 08 bf 99 d2 04 be c5 14 9d bb
       0.2189969 -0.53470296 -0.12970962 -0.0047937357
0000d0 3b e3 1d be de ae b8 3d bc 40 81 3d 27 4e 0d 3b
       -0.15418713 0.09017728 0.06311175 0.0021561475
0000e0 7c 18 15 3e de e5 56 be 20 77 da be a1 0f 70 3e
       0.14560121 -0.20986125 -0.4266901 0.23443462
0000f0 d6 3a 4b 3d 07 c6 a0 3d a4 cf c1 be 54 9c a4 3e
       0.049616657 0.07850271 -0.3785373 0.3215052
000100 a3 6a 2b be ae 80 8a be 5f 0e bd 3e 01 a6 3c bd
       -0.16739897 -0.270513 0.36925027 -0.04605675
000110 b8 af c2 be 8f d1 a8 bd ba b7 8e 3e 07 f6 64 be
       -0.38024688 -0.08243095 0.27874547 -0.22359477
000120 c2 e9 9e bd 07 42 99 3e 96 b3 aa 3e 20 e9 ba be
       -0.077594295 0.29933187 0.33340138 -0.36505985
000130 ff cd 93 3d 12 66 66 3e 88 85 e6 be 23 f5 08 be
       0.07217025 0.22499874 -0.4502375 -0.13374762
000140 95 0d a4 3e ef 86 71 3e c0 96 33 be 85 53 9c 3e
       0.32041612 0.2358663 -0.17537975 0.3053247
000150 9c 76 9e be 76 a4 55 3e 9a 65 59 3e e5 a4 36 be
       -0.30949867 0.20863518 0.21230164 -0.1783634
000160 5a b0 25 3e 89 36 a6 3d a9 e0 04 be 8c b9 e0 3e
       0.16180554 0.081158705 -0.12976326 0.4389156
000170 e9 28 9d 3e 20 5d a2 be 70 7e 4c be 59 6a b6 3e
       0.30695274 -0.31711674 -0.19970107 0.35628012
000180 5b 43 cb be ed 0e 6b be cd a1 7c 3e 58 40 7f be
       -0.39699826 -0.22954912 0.24671097 -0.24926889
000190 0b e9 c3 bd e7 32 40 bd e7 4d 20 3f e7 97 97 be
       -0.09565934 -0.046923544 0.6261887 -0.2960808
0001a0 a1 75 62 3e ff ba 44 be de 06 64 3e 3f cb 40 be
       0.22115184 -0.19211958 0.22268245 -0.18827532

module.blazeBlock.0.mix_branch1.0.mixed_depthwise_conv.1.weight f4 [12, 1, 5, 5]
000000 78 2f b4 bd d7 c3 19 3d 8e 2c 2a be 8a 7e c9 bd
       -0.087981164 0.037540283 -0.16618559 -0.098385885
000010 a5 2a 03 bd 3b b4 81 bc ad 95 f4 bd 74 67 00 bf
       -0.03202309 -0.01583301 -0.11942611 -0.50157857
000020 91 e2 2f be d5 61 b4 3d 93 3d e5 3b be 8a c6 bd
       -0.17176272 0.088077225 0.0069958656 -0.09694432
000030 ea b6 85 bd 40 0b ba 3d 48 ff 30 3e 85 bb 1f 3d
       -0.06529029 0.09084177 0.17284882 0.038997192
000040 1f 00 00 be 41 41 44 bd 0c 39 7d 3e 6e 13 3c 3e
       -0.12500046 -0.047913793 0.24728793 0.18366787
000050 87 79 2b 3e dd 44 41 bd 9a cd 37 3e d5 96 0a 3d
       0.16745578 -0.047184814 0.17949525 0.03383525
000060 78 f5 a4 3d 53 e6 1f bc 8b 83 c3 3d 38 e3 79 be
       0.08054632 -0.009759503 0.09546574 -0.24403083
000070 c1 1e a9 bd 7c 89 87 bd d9 4b 1b be a5 c8 f8 bd
       -0.08257819 -0.0661802 -0.15165652 -0.12147645
000080 10 c4 10 be c3 47 c3 be eb 84 21 be 73 ee 83 3d
       -0.14137292 -0.38140687 -0.1577336 0.06441965
000090 6b 78 96 3d 95 79 62 3e 0d 67 55 be 20 7d 44 be
       0.07347187 0.22116692 -0.20840092 -0.19188356
0000a0 59 52 62 3e 0a 78 9a 3e 01 25 ee 3e ed 5f 64 bd
       0.22101726 0.30169708 0.46512607 -0.055755544
0000b0 8f aa 82 be a2 3a ea 3d 2a 1a a3 3e d1 6a 64 3e
       -0.2552075 0.114369646 0.318559 0.22306372
0000c0 ea 80 35 3e 43 25 e8 bd 29 6f 9e 3d d0 a6 0a be
       0.17724958 -0.11335232 0.07736046 -0.13540196
0000d0 14 36 82 bd 98 c6 6e be 17 2f 8b be 9d c4 0e 3e
       -0.06357971 -0.23317945 -0.27184364 0.1394219
0000e0 a7 df 09 bd 99 fb 02 be 6d fc 59 be d9 60 df bd
       -0.033660557 -0.1279129 -0.21287699 -0.10907144
0000f0 13 16 01 3e 3e 32 75 3e 00 24 bd 3c c7 2d 75 bd
       0.12606077 0.23944947 0.023088455 -0.05985811
000100 84 58 fe bd a7 38 ba 3d ff 05 6c 3e 43 ab 3d 3e
       -0.12419227 0.09092837 0.23049162 0.18522362
000110 11 1a 28 be 7e c8 65 be 81 18 23 3e c1 47 b0 3e
       -0.16416194 -0.22439763 0.15927316 0.34429744
000120 a9 fd 23 3e c9 54 b5 bc 5f f5 a9 3c 24 ce c3 bd
       0.16014732 -0.022135155 0.020746885 -0.095608026
000130 fc 6b 00 3e 2a 72 e6 3d 3b c9 7c 3e 43 66 87 bd
       0.12541193 0.11252244 0.24686138 -0.06611302
000140 c6 18 1f 3e b8 94 90 3e 3d 06 22 3e c8 a0 55 3d
       0.15536794 0.28238463 0.15822692 0.052155286
000150 77 a6 50 3e 52 84 01 3d b5 b5 0a 3d 82 fb f3 bd
       0.20376001 0.03162033 0.033864696 -0.11913206
000160 82 16 05 be aa f4 f8 bc f0 fa a8 3d 4f 45 e1 bc
       -0.12996867 -0.030390102 0.082509875 -0.02749887
000170 64 cb 9d be ae ae 2e be 90 0a 27 be b7 b5 3d 3d
       -0.30819237 -0.17058823 -0.16312623 0.046315875
000180 41 8d ee 3d cb cd 0f 3e 58 51 7f be 16 ab 2d be
       0.11648036 0.14043348 -0.24933374 -0.16959795
000190 60 cc 4c be f0 94 bc be 47 e4 9d be 9d 42 20 bc
       -0.19999838 -0.3683238 -0.30838224 -0.009781507
0001a0 cd 00 ff bc 1b 62 65 3d b9 32 31 3d eb a9 5a be
       -0.031128312 0.056001764 0.043261264 -0.21353881
0001b0 82 32 57 bd ca 30 16 3e 5c 15 d6 bd aa 02 3f 3e
       -0.052538402 0.14667049 -0.10453293 0.1865336
0001c0 3c f7 80 3d cf ae fc 3d e1 90 4a bd d8 4c 0a 3e
       0.06297156 0.123380296 -0.049454574 0.13505876
0001d0 79 77 0c be 38 2e 5b 3d 9b 4b 97 3d 5a 31 b3 3d
       -0.1371745 0.053510875 0.073874675 0.087496474
0001e0 bd 38 52 3e f2 88 4a 3e 44 1e 36 3e 3a b6 b3 3d
       0.20529456 0.19778803 0.17784983 0.08774991
0001f0 22 34 c2 3d e0 03 12 be 2b 67 83 be e7 f6 3d be
       0.094826 -0.1425929 -0.25664648 -0.18551217
000200 fa 89 1e 3d 4c f7 a9 bc 08 4c a2 bd 26 83 a0 bd
       0.038705803 -0.020747803 -0.07924658 -0.078375146
000210 8c 75 ba bd de 1f 3d 3e b1 a2 8d 3e cf 0c 02 3d
       -0.091044515 0.18469188 0.27663186 0.031750496
000220 ff 3c 01 be 2a f8 03 be 80 b1 92 3e 6f c9 8f 3e
       -0.12620924 -0.12887636 0.28651047 0.2808337
000230 9f 64 89 3d 99 61 d2 bd 70 04 00 be 98 63 46 3e
       0.06708645 -0.102725215 -0.12501693 0.1937393
000240 08 af 87 3e a3 df 51 be bc a0 a5 3d 64 0e 23 be
       0.26500726 -0.20495467 0.08087298 -0.15923458
000250 42 14 6c 3d 23 8f 0a bc 23 7a 9e 3e 1f b2 ad 3d
       0.057636507 -0.008456978 0.30952558 0.084812395
000260 e4 9f 5d 3d 18 ac 99 3e 49 fe c6 3e 0d e0 f4 bb
       0.05410756 0.3001411 0.3886588 -0.007472998
000270 f2 80 aa 3d d5 29 a3 bd 37 be 36 3e e5 2f a8 bd
       0.083253756 -0.07966963 0.17845999 -0.0821226
000280 a1 a9 8f bd 64 c0 ab be a7 b5 44 be f2 5a 5d 3d
       -0.07014776 -0.3354522 -0.1920992 0.05404181
000290 a7 88 9a 3d 43 ae 14 3d 1a 06 8b be b4 ca c3 be
       0.075455956 0.036299 -0.27153093 -0.38240588
0002a0 d6 7c 21 bd 90 46 f3 3b 27 f2 9b bd e5 d5 35 bd
       -0.039425693 0.007424183 -0.07614546 -0.04439344
0002b0 a2 07 50 be eb 34 53 be e1 3d 09 3e f7 14 8a 3e
       -0.20315412 -0.20625655 0.13402511 0.2696912
0002c0 6c 1d bd 3c 10 36 85 be d7 fa 35 be b5 e9 e7 bd
       0.023085319 -0.2601781 -0.17771469 -0.11323873
0002d0 6d a2 44 bd 89 92 c5 bb a5 bc 9b 3d 5d c8 ac be
       -0.048006464 -0.0060294312 0.076043405 -0.33746615
0002e0 e1 1f a7 be f9 ea 4d 3d 76 ef a0 3d 9f 0d 17 be
       -0.3264151 0.050272916 0.078581735 -0.1475129
0002f0 6d 6e f9 bd ee 64 5b bd f6 36 8f 3d 8b 5b 45 3e
       -0.12179265 -0.05356305 0.06992905 0.19273202
000300 8d 5c b7 3e 92 bc 02 3e 21 79 e8 bd 86 24 a1 3c
       0.35812798 0.12767246 -0.113512285 0.019670736
000310 2d 6a 65 3e 41 d3 95 3e 60 e1 a4 bd b6 2f e9 3d
       0.22403784 0.29262736 -0.08050799 0.11386053
000320 0f 6d 35 3b ab 4f 45 be 55 56 69 3d a7 f7 89 3d
       0.0027683412 -0.19268672 0.0569671 0.06736689
000330 23 c7 54 3e 30 d6 31 be d8 e7 83 be 88 81 b8 3b
       0.2077909 -0.17366862 -0.2576282 0.0056306757
000340 86 29 b9 3d 98 8f 5b 3e 79 3b bc bd 5c 30 9f 3d
       0.09041123 0.21441495 -0.09191031 0.07772896
000350 0b 08 a6 3d 40 d9 29 3c c7 b4 64 3e 6b ed 2a bc
       0.08107003 0.010366738 0.22334586 -0.010432581
000360 cf 45 b4 3d d9 83 8c bd 5d b9 92 bd 8b 08 8b 3c
       0.088023774 -0.068610854 -0.071642615 0.016971847
000370 bb 13 8a bb 85 0b e5 bd a0 63 2c bd 14 e0 a0 be
       -0.004213778 -0.11183838 -0.042087197 -0.31420958
000380 75 0c b5 bd f5 97 11 3e e8 ad f3 bd 48 65 a0 be
       -0.088402666 0.14218123 -0.11898404 -0.3132727
000390 10 c3 85 be c8 53 8b be fd 78 81 3d 70 6b 06 bd
       -0.26125383 -0.27212358 0.06321905 -0.032817304
0003a0 36 3c 10 bd 5c 63 d1 be a3 25 56 be 7d 3a ee 3d
       -0.03521367 -0.40896118 -0.20912795 0.116322495
0003b0 cf ef 85 3e d8 c6 cc bd 23 d2 8c be a2 2d e6 3d
       0.26159522 -0.09998864 -0.27504072 0.112391725
0003c0 25 8a 14 3e 41 eb 68 3e 19 da 8e bc 9f 69 16 3e
       0.14505823 0.22745992 -0.017437981 0.14688729
0003d0 8a f8 dc 3d d0 60 19 be aa 60 e7 3d d6 13 85 3e
       0.107895926 -0.14978337 0.11297734 0.25991696
0003e0 dc 00 3d 3e 14 18 14 3e 4a 80 84 3d 13 da d2 3c
       0.18457359 0.1446231 0.06469782 0.025738752
0003f0 d9 e6 f7 3d 8f 6d 0b 3d e1 42 90 bd ce a7 74 3d
       0.121045776 0.03404003 -0.07044006 0.059730344

module.blazeBlock.0.mix_branch1.1.weight f4 [24]
000000 4e a8 5f 3f 63 8c 7a 3f 9d 09 8e 3f 10 12 96 3f
       0.8736619 0.97870463 1.1096684 1.1724262
000010 f9 d5 6a 3f b9 79 92 3f 9c 8d a6 3f 52 31 6d 3f
       0.91732746 1.1443397 1.3011966 0.9265338
000020 22 30 74 3f f0 b9 55 3f 4b 9c 88 3f d2 e9 71 3f
       0.95385945 0.83486843 1.0672697 0.94497406
000030 00 5b 71 3f 41 91 8f 3f 5c 33 6d 3f e5 aa 6b 3f
       0.9427948 1.1216203 0.92656493 0.9205764
000040 7d 6a 6f 3f 28 8a 80 3f 0b ca 75 3f df 1c 82 3f
       0.93521863 1.0042162 0.9601142 1.0165061
000050 57 70 57 3f 95 b7 82 3f ca 74 80 3f 5d 34 79 3f
       0.8415579 1.0212275 1.0035641 0.97345525

module.blazeBlock.0.mix_branch1.1.bias f4 [24]
000000 fc ff dd 31 36 c9 bd b3 f2 fe 66 b2 9b 5a 98 32
       6.4610486e-09 -8.8375984e-08 -1.344573e-08 1.7736332e-08
000010 1f 0a cd 33 d5 5c 0f b1 9b 7e af 32 99 1c 17 b3
       9.5478974e-08 -2.0862008e-09 2.0430255e-08 -3.5183437e-08
000020 c3 e7 ad 32 fa fd 74 33 57 c4 7b 32 5f c5 55 34
       2.0245244e-08 5.7041667e-08 1.4654765e-08 1.9908974e-07
000030 61 e5 b2 b2 14 1c f2 33 9e d3 75 32 1d 36 a6 33
       -2.0826237e-08 1.12741105e-07 1.4308993e-08 7.7398205e-08
000040 ce ba 16 33 f9 85 2b b3 0e fc 0e 33 79 5d 3b b3
       3.5094494e-08 -3.9935887e-08 3.3291194e-08 -4.3624343e-08
000050 ac 7b 6d 33 fa 4f a5 b3 e7 b5 c3 32 5d 72 27 b2
       5.529334e-08 -7.697959e-08 2.2783707e-08 -9.746683e-09

module.blazeBlock.0.mix_branch1.1.running_mean f4 [24]
000000 8a 19 86 3e 44 98 b7 3d 57 0e 2f 3e 93 45 e3 3c
       0.2619136 0.08964589 0.17095314 0.027743137
000010 5b a2 40 bd 20 a1 e4 bc d1 d0 81 be 2f af c4 bd
       -0.047029834 -0.027908862 -0.25354627 -0.09603726
000020 6f b7 21 3d 2c 39 9b 3e 0e c7 b5 3c fd ee c2 3b
       0.039481577 0.30317056 0.022189643 0.0059489
000030 4f d1 e3 bd ec b5 96 3d e5 33 88 3c 76 40 e1 3d
       -0.11123907 0.073589176 0.016626308 0.10998623
000040 0e e8 f1 3d be ee 79 3c 06 ed 36 bd 68 a2 94 3d
       0.11811839 0.0152546745 -0.044659637 0.07257539
000050 dc ff 02 be 78 5e a6 bd 05 ef 14 3e 33 bf ea 3d
       -0.12792915 -0.08123487 0.14544304 0.114622496

module.blazeBlock.0.mix_branch1.1.running_var f4 [24]
000000 56 ae 2a 3e 5a 2b ef 3d 40 c4 35 3e 5d 25 32 3e
       0.16668066 0.116781905 0.17750645 0.17397065
000010 85 a7 bd 3d 60 1d 12 3e 24 b9 2f 3e 89 4f 1e 3e
       0.092604674 0.14269018 0.1716047 0.15460028
000020 38 ca 06 3d ff d6 25 3e ec 9c 04 3e f6 58 6f 3e
       0.032907695 0.16195296 0.12950486 0.2337378
000030 9c 18 2d 3e af 1e c1 3e 58 fb 91 3e 79 e5 6a 3e
       0.16903919 0.37718722 0.28512073 0.229391
000040 f1 e6 9d 3e 45 b6 9b 3e ea a4 61 3d 67 6c 90 3e
       0.30840257 0.30412498 0.055088915 0.28207704
000050 c9 7d 1c 3e 57 ae a5 3e a9 6b 11 3e 18 8b 9c 3e
       0.15282358 0.32359573 0.14201225 0.3057487

module.blazeBlock.0.mix_branch1.2.weight f4 [24, 24, 1, 1]
000000 e9 54 24 3e 9d 01 c2 bd 0f 26 0c be 18 fd a7 bd
       0.16048016 -0.09472964 -0.13686393 -0.08202571
000010 79 08 b9 3d 82 a6 86 ba d6 fa a1 3d 64 f1 e9 bd
       0.09034819 -0.0010273012 0.07909171 -0.11422995
000020 7c 56 09 3e be 4b 3f be e5 07 31 be c4 f4 18 3d
       0.13411897 -0.18681237 -0.17288168 0.0373428
000030 78 e3 72 3e 4d 45 22 3d 4f 17 c3 bd 70 b9 aa 3d
       0.23719585 0.03961687 -0.0952593 0.08336151
000040 9d c6 2c be 0e f8 29 be ba ed 2d bd d8 af 1d 3d
       -0.1687264 -0.16598532 -0.04246304 0.038497776
000050 cf 72 d9 bd 03 4d 23 3c 4c f7 dd bc f3 18 94 3d
       -0.10617601 0.0099670915 -0.02709546 0.07231321
000060 93 a8 2d be eb 10 70 3c 98 5b 06 be 4e c8 09 3d
       -0.16958837 0.014652471 -0.13120878 0.03363829
000070 b0 5b e8 bc bd aa 52 3d 3a f5 dd bd ce 6c 97 be
       -0.028364033 0.05143236 -0.10837789 -0.295752
000080 16 03 4e be 34 fc 4e bd 96 63 ad be 04 7b ab bd
       -0.20118365 -0.05053349 -0.3386504 -0.08373073
000090 53 f3 c1 3c 77 27 a3 be 73 85 a7 be bc 0e 0a be
       0.023675596 -0.31866047 -0.32719 -0.13482183
0000a0 8d f1 80 3c 01 1a a4 be 3a 2e 2e be 74 13 b4 3c
       0.01574018 -0.3205109 -0.17009822 0.021981932
0000b0 a9 05 7b be bc 91 4b 3e ed f1 1b be 6a 16 00 be
       -0.24513878 0.19879812 -0.15229006 -0.1250855
0000c0 3d 48 26 3d 49 05 68 3b 2c ff af be 04 35 67 3e
       0.040596236 0.003540354 -0.34374368 0.22578818
0000d0 65 7b 9c bc a5 9e 7c 3e 50 07 64 3e 3f 02 ae 3c
       -0.019101808 0.24669893 0.22268414 0.021241305
0000e0 23 78 4a 3e df cd 98 bd 7a 0e 0f 3e b5 15 a0 bd
       0.19772391 -0.07461142 0.13970366 -0.0781664
0000f0 fa 86 c7 bb a1 17 25 3e 7b 78 43 3d 0e 49 32 bd
       -0.0060890885 0.16122295 0.04772232 -0.0435267
000100 ae 0e 51 3c 66 f9 1a be 17 42 2e 3e f9 c6 87 be
       0.012759848 -0.151342 0.17017399 -0.26518992
000110 3b fc 9d 3c 75 8c 81 be 6e 99 9b bc 7a 22 a5 be
       0.019285312 -0.25302473 -0.01899406 -0.32252866
000120 fc 36 7d be 30 aa b1 3d 6d 06 e5 3d 62 0a c8 b9
       -0.24728006 0.08675039 0.11182866 -0.00038154708
000130 78 24 72 bd 03 2c bc 3d 63 da f2 3c 49 d0 09 bd
       -0.05911681 0.09188082 0.02964515 -0.0336459
000140 b3 4b e1 bd ac 36 c6 bd 09 10 f5 bd 70 cd a7 bb
       -0.110007666 -0.096783966 -0.11965949 -0.0051209256
000150 ec a3 ef bd 76 3a bf be 3c 74 0e be 5a 86 c3 3d
       -0.117011875 -0.3734929 -0.13911527 0.0954711
000160 24 64 33 3e a5 40 09 3d 6b d6 3c be 9a 70 e3 bd
       0.1751867 0.033508915 -0.18441169 -0.111054614
000170 84 1f 7c be 64 e5 58 be c7 b2 6e 3d e6 62 92 bd
       -0.24621397 -0.21181256 0.058275964 -0.0714777
000180 2f 8a 05 3e 0c db 7b bd a3 22 33 be ac e1 0e be
       0.13040994 -0.061488196 -0.17493682 -0.13953274
000190 11 fd f8 bc 31 83 94 bd f7 8a 31 3e 32 18 13 3d
       -0.030394109 -0.07251585 0.17338167 0.035911746
0001a0 b5 a9 da bd 3b 5a 59 bd 79 fa 46 3d 21 28 8b bd
       -0.106769 -0.053064566 0.048578713 -0.06794763
0001b0 3e 35 ad 3e f9 77 8e be 08 bb 93 bd f8 fc 1e 3e
       0.33829683 -0.27825907 -0.07213408 0.15526187
0001c0 9b 04 23 be 0b 61 6c 3d 48 d1 41 be 56 2e 18 be
       -0.15919726 0.057709735 -0.1892749 -0.14861426
0001d0 76 2b 67 bd 74 1f 24 bc 26 6d 27 3c 0b 18 d4 3c
       -0.056437932 -0.010017265 0.010218894 0.02589037
0001e0 4f ef 00 3e 62 24 2a 3e 75 0f fc 3e bc 44 e3 be
       0.12591289 0.16615441 0.49230543 -0.44388378
0001f0 6e e0 b0 bd 4d b5 3a be 7a c1 f7 bc 4d 42 ac 3d
       -0.086365566 -0.18233223 -0.030243624 0.08411083
000200 36 97 78 3d 0b 7f 15 be 78 a3 cc bd f1 b7 94 3c
       0.06069108 -0.14599244 -0.09992117 0.018154116
000210 85 9a 81 3d dd da 00 be b8 d6 0a be 5d 61 22 3d
       0.063283004 -0.1258349 -0.13558471 0.039643634
000220 4a 87 10 3e 35 cd 2a 3d bf 27 05 be 95 86 b8 bc
       0.14114109 0.041699607 -0.13003443 -0.022525111
000230 be f2 97 3d 60 cb 5c 3d 3e d6 00 be 3a 2e 74 bc
       0.07419346 0.05390489 -0.12581727 -0.014903599
000240 c2 9f 3d 3d 42 78 6f 3e 27 d2 b0 3c 38 7a 03 3c
       0.046294935 0.23385718 0.021584583 0.008024745
000250 3c 80 1a 3c 4f 00 9f 3d 43 6a cb 3e f2 0d bd 3d
       0.0094299875 0.07763731 0.3972951 0.092311755
000260 41 86 7a 3d d9 03 6b be 94 21 d4 3d cc d5 e0 3c
       0.06116319 -0.22950687 0.10357967 0.027445696
000270 01 8b 03 3e 19 3c 34 3e 41 3e 1e 3e 1b 24 ec bd
       0.12845995 0.1760105 0.15453435 -0.11530324
000280 72 83 77 be 23 38 eb bc e3 ac 94 bc 67 8f 89 be
       -0.24171236 -0.028713292 -0.018148845 -0.2686722
000290 5a 65 23 be 1b b0 48 be b1 01 02 be b0 9f 02 be
       -0.15956631 -0.19598429 -0.12695958 -0.12756228
0002a0 c8 ee 36 3e 08 ac 9b be f6 46 16 3d f4 f8 bb 3d
       0.17864525 -0.30404687 0.036688767 0.091783434
0002b0 a2 2d f6 3b 1d 96 f5 bd 18 7d c7 3c 4f ef d0 3d
       0.007512764 -0.119915225 0.024351642 0.102018945
0002c0 19 7e c3 3d 31 d4 de bd ed 76 92 3d b8 2f d4 3d
       0.095455356 -0.10880316 0.071515895 0.10360664
0002d0 ac 3a 03 be b3 23 ce 3e 46 85 e1 3d bb 6d 17 be
       -0.1281535 0.4026161 0.11011748 -0.14787953
0002e0 b2 e1 04 3e f1 ee ae bd 41 a2 ff 3c a4 f8 cf 3e
       0.12976721 -0.08541668 0.031205298 0.40619385
0002f0 f5 67 0c bd 37 57 96 3e 54 76 d8 bd e9 8b 87 3e
       -0.03427883 0.29363415 -0.10569444 0.2647393
000300 d4 63 2f be 51 e9 58 bc 22 82 1c bd 53 ef 58 be
       -0.17127925 -0.013239221 -0.03821004 -0.21185045
000310 6a 10 be 3d c6 ef 4c 3d e1 7c c7 3e fe ef 18 3e
       0.092804745 0.050033353 0.38962463 0.149353
000320 c2 51 01 be dd 65 d8 3c 49 e8 20 3d 1e e1 69 3c
       -0.12628844 0.02641576 0.039284024 0.0142748635
000330 b7 04 0a 3e bc 46 8b bd 10 a4 9a bd 7a 68 1a 3e
       0.13478361 -0.06800601 -0.07550824 0.15078917
000340 49 1e aa 3a d6 f6 bd 3d 18 c0 22 3e e9 aa ab bb
       0.0012978996 0.09275596 0.1589359 -0.00523888
000350 53 4a 82 bd b4 bb 04 bd c4 e2 63 be 73 a8 b7 bc
       -0.063618325 -0.03240557 -0.22254473 -0.02241919
000360 ce b3 2c 3e 43 67 43 3d 83 58 4a 3d a6 91 e4 bc
       0.16865465 0.0477059 0.049400818 -0.027901482
000370 71 9b 8b bd 41 0b 09 bd 36 67 74 bd f3 b0 09 3e
       -0.068167575 -0.033458 -0.059668742 0.13446407
000380 37 7c 43 3c f7 08 cb 3d 98 f0 a1 bd 36 09 9b bd
       0.011931471 0.09913819 -0.07907218 -0.07570116
000390 ac 48 77 bd 06 81 0d ba 34 ba de bb d9 ab 6d bd
       -0.06037204 -0.0005397949 -0.0067970995 -0.058025215
0003a0 27 d2 1b 3d 05 09 0a be 54 07 21 3d 2e 08 80 3e
       0.038042214 -0.13480003 0.03931363 0.2500624
0003b0 60 9b 92 be c0 69 9b be 59 47 7e 3d 25 89 30 3e
       -0.28634167 -0.30354118 0.06207976 0.17239816
0003c0 13 b4 4a bd 10 28 99 3d d4 1a 1c bd 99 81 20 be
       -0.04948814 0.074783444 -0.038111523 -0.15674438
0003d0 35 10 bc bd 31 1f 4f 3e f9 4d e0 3c 70 a2 73 3d
       -0.09182779 0.20226742 0.02738093 0.059481084
0003e0 b1 70 0e 3d 10 ce 34 be aa ec 49 be 1f dd f8 bc
       0.03477544 -0.17656732 -0.19719186 -0.030378876
0003f0 e9 09 f8 3d 64 94 83 3e 0f 9b f4 bd 95 dd d8 bd
       0.12111265 0.2569915 -0.119436376 -0.105891384

module.blazeBlock.0.mix_branch1.2.bias f4 [24]
000000 30 21 88 3c 08 fb d1 bd 7d dc c9 3d ca d1 11 3d
       0.016617388 -0.102529585 0.09856508 0.03560046
000010 77 ff 36 be eb 74 07 be 2f fd 36 3d 45 56 01 3e
       -0.1787089 -0.13228194 0.04467505 0.12630565
000020 03 4e 86 bd 22 23 ca 3d 27 74 01 be 73 05 48 3e
       -0.06557848 0.09869982 -0.12641965 0.19533329
000030 65 f0 14 3e a0 97 1c 3d d8 fb b9 3d c0 8b 91 3d
       0.14544828 0.03823054 0.090812385 0.07106733
000040 32 b0 f6 bd 89 36 eb ba 52 f4 5e 3d f2 b0 3c bd
       -0.12045325 -0.001794533 0.05443222 -0.046067186
000050 40 70 48 3e 77 30 a1 bd 48 ac 3a be ff 04 c7 bd
       0.1957407 -0.07870572 -0.18229783 -0.0971775

module.blazeBlock.0.mix_branch1.3.weight f4 [24]
000000 f4 92 7f 3f 08 1d 7c 3f 6a 5b 76 3f 0b 23 7f 3f
       0.9983361 0.984818 0.96233237 0.99662846
000010 fd b8 7f 3f fe 3d 80 3f fc 5b 7b 3f 6e 24 80 3f
       0.99891645 1.0018919 0.9818723 1.0011117
000020 3c 4c 7b 3f 85 d4 7d 3f eb 44 80 3f 03 fe 7f 3f
       0.981632 0.99152404 1.0021032 0.99996966
000030 f9 17 80 3f 6e de 7f 3f a3 e7 7e 3f ea 95 7e 3f
       1.0007316 0.99948776 0.995722 0.994475
000040 98 5d 7e 3f 49 9d 7c 3f 94 01 80 3f 2c 73 80 3f
       0.9936156 0.986775 1.0000482 1.0035148
000050 41 99 7f 3f 8e 8f 7a 3f 96 a4 7f 3f ef fa 78 3f
       0.9984322 0.978753 0.99860513 0.97257894

module.blazeBlock.0.mix_branch1.3.bias f4 [24]
000000 7c 9a 99 bd 9a f8 45 3e 65 7c 8f 3e 59 3a cc 3d
       -0.07500169 0.19333115 0.28024593 0.099720664
000010 cc b1 aa 3d 3c 5b c4 bd f9 2b 51 be 21 3c 8e 3d
       0.08334693 -0.09587714 -0.2042693 0.069450624
000020 dd 06 46 3e 2e 16 06 3e c9 bb 56 3b 52 0a 78 3c
       0.19338556 0.13094398 0.0032765737 0.015139179
000030 a1 8f cf 3c 5d b6 c4 bd 39 eb ef bd 22 cc e5 bd
       0.025337042 -0.096050955 -0.11714787 -0.11220576
000040 75 e3 f9 3d 9a 95 2d be 6a fb 8d bd 46 32 bc 3b
       0.12201587 -0.169516 -0.06932719 0.0057432977
000050 95 28 b8 3d f5 d9 69 be df 26 e5 bd ac bb 72 3e
       0.089921154 -0.2283705 -0.11189055 0.23704404

module.blazeBlock.0.mix_branch1.3.running_mean f4 [24]
000000 39 21 88 3c 11 fb d1 bd 85 dc c9 3d b8 d1 11 3d
       0.016617404 -0.10252965 0.09856514 0.035600394
000010 77 ff 36 be ee 74 07 be 2d fd 36 3d 46 56 01 3e
       -0.1787089 -0.13228199 0.04467504 0.12630567
000020 ff 4d 86 bd 1b 23 ca 3d 2a 74 01 be 74 05 48 3e
       -0.06557845 0.09869977 -0.1264197 0.1953333
000030 5f f0 14 3e 9b 97 1c 3d cf fb b9 3d c4 8b 91 3d
       0.1454482 0.03823052 0.09081232 0.07106736
000040 2f b0 f6 bd a1 2e eb ba 65 f4 5e 3d ee b0 3c bd
       -0.12045323 -0.0017942974 0.05443229 -0.04606717
000050 3b 70 48 3e 77 30 a1 bd 45 ac 3a be ff 04 c7 bd
       0.19574063 -0.07870572 -0.18229778 -0.0971775

module.blazeBlock.0.mix_branch1.3.running_var f4 [24]
000000 a4 c7 27 3f 65 cc 67 3f 7c 5d 44 3f 17 33 12 3f
       0.65539 0.90546256 0.76705146 0.57109207
000010 61 53 81 3f 15 d6 99 3f c4 91 3f 3f 26 88 76 3f
       1.010357 1.2018458 0.74831796 0.96301496
000020 55 95 cc 3e 09 d1 f8 3e 83 47 f8 3e 49 85 f0 3e
       0.3995768 0.4859698 0.4849206 0.46976689
000030 af 05 d6 3e 8b f7 9d 3f a2 19 85 3f df 72 fc 3e
       0.4180121 1.2341169 1.0398448 0.4930639
000040 cd d8 22 3f 6b 5c ee 3e 1c 99 24 3f 6e c1 9e 3f
       0.6361206 0.46554884 0.64296126 1.240278
000050 b5 0b 20 3f 1e e5 78 3f 8a 67 83 3f d4 d7 28 3f
       0.62517864 0.97224605 1.0265973 0.6595433

module.blazeBlock.1.mix_branch1.0.mixed_depthwise_conv.0.weight f4 [12, 1, 3, 3]
000000 4a e6 60 be 48 54 97 3c c7 2e 53 be 30 d2 58 be
       -0.21962848 0.018472806 -0.20623313 -0.2117393
000010 1c ec 8c be bc ab 8d be c1 6d 3b be bf ac cb bd
       -0.27523887 -0.27670085 -0.18303587 -0.09945058
000020 d8 49 9b be 61 32 c7 3d b4 0f a4 3e 15 36 39 3e
       -0.30329776 0.09726406 0.3204323 0.18087037
000030 3a 99 b5 3d 17 49 42 3d 1b 5e b4 3e 2b 28 33 3e
       0.08867116 0.047432985 0.35228047 0.17495792
000040 db 7a 22 3e 17 4d 90 3e 2b b7 8a be 77 fb ec bd
       0.15867178 0.28183815 -0.2709287 -0.115714006
000050 f2 f4 80 bb 30 6b 88 be c4 ab 8e be 1c f6 ae bd
       -0.0039354498 -0.26644278 -0.27865422 -0.085430354
000060 2a 26 7f bd 04 c5 8f be 38 97 20 be a4 79 19 bd
       -0.062292255 -0.28079998 -0.15682685 -0.03746952
000070 ea b0 ec 3d 0a 46 96 3e 91 2d 3e 3e c3 b9 21 3e
       0.11557181 0.2935031 0.1857207 0.15793519
000080 b9 1c 70 3d c1 cb b7 bd 25 75 4b 3e b2 07 2a 3e
       0.058621142 -0.0897441 0.19868906 0.16604498
000090 4f 7c 77 3e 9b 15 71 3e 41 c4 81 3e e4 95 cc bd
       0.24168514 0.23543398 0.25345042 -0.09989527
0000a0 c0 9e 93 3e d3 32 17 3e 90 18 8b bd a3 cf 16 3e
       0.28832054 0.14765482 -0.06791794 0.14727645
0000b0 0d fd 3e 3e 7e c9 b2 3d b7 ae 70 3e bd 0f fb bc
       0.18651219 0.08729838 0.23504148 -0.030647153
0000c0 67 11 5a 3e bf 88 34 3e 1f 73 77 3e 76 40 81 3e
       0.21295701 0.1763029 0.24165009 0.25244492
0000d0 b9 c0 7a 3e 86 37 a6 3e df 8b 99 3e 9f 8b a5 3d
       0.2448758 0.32464236 0.29989526 0.08083271
0000e0 01 ce a5 3d c2 73 27 3e 04 f0 94 3e d8 ef df 3d
       0.08095933 0.16352752 0.29089367 0.109344184
0000f0 a0 b2 70 bc 83 f8 94 3e b1 02 97 3d ce 06 09 bd
       -0.014691025 0.2909585 0.0737356 -0.033453755
000100 6f 93 38 be 27 ef 67 bc f2 0e b9 bc 1e 68 9e be
       -0.18024991 -0.014156139 -0.022590134 -0.3093881
000110 ab 9b 83 be c3 1a 9d bd 80 69 31 be c8 f9 ea bd
       -0.25704703 -0.0767112 -0.17325401 -0.11473423
000120 d7 83 67 3e 77 bc 98 be 84 89 dd 3c ca e4 11 3e
       0.22608887 -0.29831287 0.027043112 0.14247432
000130 11 a9 3c 3d 41 ef 7e be 39 c6 b1 bc b2 8a 57 3e
       0.04605967 -0.24895956 -0.021700965 0.21049002
000140 94 28 66 be 11 0c 4b 3c a9 b7 37 be 00 9a 55 be
       -0.22476417 0.012393014 -0.17941155 -0.20859528
000150 0b c3 81 3e 61 24 ff bd cd 80 09 be 31 f7 b9 3e
       0.25344118 -0.124581106 -0.1342804 0.36321405
000160 60 a4 03 3e 4b f7 39 be 17 18 88 be 28 26 1d be
       0.12855673 -0.18160741 -0.2658088 -0.15346587
000170 94 fa a3 bd 83 18 1e be 62 62 3b be 09 bb 23 3c
       -0.08006778 -0.15439038 -0.18299249 0.009993323
000180 df 28 83 be c5 d2 2a be 2b a2 34 bd 84 b6 92 3e
       -0.2561712 -0.16681965 -0.044099968 0.28654873
000190 f4 b6 81 3e f8 b1 81 3e 1e b6 12 be 9d bd 4d be
       0.25334895 0.25331092 -0.14327285 -0.20091863
0001a0 98 0f 4b bd 9e ee 34 be a7 61 69 be e8 d0 39 be
       -0.04957542 -0.1766915 -0.22791158 -0.18146098

module.blazeBlock.1.mix_branch1.0.mixed_depthwise_conv.1.weight f4 [12, 1, 5, 5]
000000 b3 de 26 be ee 3c a1 3d 2b 0e e7 3d 49 7c e8 3d
       -0.1629589 0.078729495 0.11281999 0.113518305
000010 20 67 4b 3e e6 32 84 3c b3 f2 a1 3d 72 5e 65 3d
       0.19863558 0.016137552 0.07907619 0.055998273
000020 cf d2 07 3e f9 6e 0d 3e 08 e6 f1 3c e9 26 1c 3c
       0.13264011 0.13811864 0.029528633 0.009530761
000030 d9 bb 02 3e 8d 55 5b 3d 03 cc d4 ba 43 d2 39 3d
       0.1276697 0.053548384 -0.0016235117 0.045366537
000040 01 a4 2d bc 86 8a 69 3e a3 9d 8c 3d 8c 5a 92 3d
       -0.010598184 0.22806749 0.06866004 0.07146177
000050 2b e5 8e bd 04 bf 0b 3e d4 a3 c1 bb 3c e1 2b 3e
       -0.06977304 0.13647085 -0.0059094224 0.16785139
000060 da 3b 34 3e 3d c9 4e 3d d5 73 2b 3d b0 d9 95 3a
       0.17600957 0.050484885 0.041858513 0.0011432674
000070 13 57 e0 3c fd 99 f7 3b 05 b6 ad bc 68 b3 d1 bd
       0.02738527 0.0075561986 -0.021204958 -0.10239297
000080 9c c5 01 be 1e 93 c8 bd 19 6c 5b bd d7 d2 98 bd
       -0.12673038 -0.097936854 -0.053569887 -0.074620895
000090 64 c7 2b be 2f 5f 77 be ad 28 40 be 5c 35 dd bd
       -0.1677528 -0.24157403 -0.18765517 -0.10801193
0000a0 34 52 44 bd 37 a8 16 bd 97 7b 69 be 75 36 9c be
       -0.047929958 -0.036781516 -0.22801052 -0.30510297
0000b0 99 a8 56 be aa b1 11 3d 16 a5 35 bd fb cd 1c be
       -0.20962752 0.035569824 -0.04434689 -0.1531295
0000c0 ee cb c2 bd 5c 8f a9 bd d9 ff 8d 3b 1c b7 61 3d
       -0.09511553 -0.08279297 0.004333478 0.055106267
0000d0 2b e2 99 bd 7a b2 a1 bd c4 83 34 3c 12 75 0a 3e
       -0.07513841 -0.0789537 0.0110177435 0.13521221
0000e0 41 9f 5e 3d de 0a 61 3c af 7e 07 bc 1e b7 bf bc
       0.054351095 0.013735501 -0.00826995 -0.023402747
0000f0 cb 80 59 3e 96 e5 01 3e af 40 3c 3e 30 47 2c bd
       0.21240537 0.12685236 0.1838405 -0.042060077
000100 1c 65 d9 bd e5 52 c5 3d 91 47 86 3e 09 27 35 3e
       -0.10614988 0.096349515 0.26226476 0.17690672
000110 7b cd d5 3d 04 46 05 bc f1 cc 92 3d b0 fc 80 3e
       0.10439583 -0.008134369 0.07167996 0.25192785
000120 08 cb b0 3d be 37 32 3e 13 86 ab 3d a6 47 b9 3d
       0.08632475 0.17404076 0.08375182 0.09046869
000130 da 19 2c bd e5 a1 6a bc cb 48 04 3e a7 58 30 3e
       -0.04201684 -0.014320825 0.12918393 0.17221318
000140 5f fb 04 bd 6e 66 d9 3c b1 30 b6 3d 7b cb d6 3c
       -0.03246629 0.0265381 0.08896006 0.026220074
000150 63 96 81 3d a1 f7 07 bc 2f ea 6d bd 97 a2 1b bd
       0.06327512 -0.008298785 -0.058084663 -0.037996855
000160 b6 c3 a0 3d da 30 12 3d f3 72 42 be 0f 32 5e be
       0.07849829 0.03569112 -0.18989162 -0.21698783
000170 f4 0d ca bd 0c c1 31 be 96 d4 22 be e4 f6 5d be
       -0.098659426 -0.17358798 -0.15901408 -0.21676213
000180 bc 8c 30 be 97 ec 31 be 0d 3a 28 be 38 de 9b bd
       -0.17241186 -0.17375408 -0.16428395 -0.07610744
000190 89 a4 06 be a6 da ed bd b6 48 1e bc 1e f3 ce 3d
       -0.13148703 -0.116139695 -0.00966089 0.10104965
0001a0 76 07 a2 3d fc 6e b7 bd 68 dc 52 be a5 d8 16 bd
       0.07911579 -0.089567155 -0.20591891 -0.036827702
0001b0 c3 61 ad bc f8 e5 26 3c 60 c6 a6 bd c8 f5 8c bd
       -0.02116478 0.010186665 -0.08143306 -0.068828166
0001c0 39 f8 3c 3c 5d d1 a9 3d ec 38 81 bc 8e 43 31 be
       0.01153379 0.08291886 -0.015774213 -0.17310926
0001d0 f4 b5 ce bd d9 2d db bd 51 a2 fe 3c 70 44 2a 3d
       -0.100932986 -0.10702104 0.031083258 0.041569173
0001e0 b1 d6 a7 be 65 74 85 bd 93 58 fc bd 00 9e 1b be
       -0.32780984 -0.06516341 -0.12321582 -0.15196991
0001f0 d5 ee 0c 3e 84 09 76 bc 97 fb 24 be e8 16 d1 bc
       0.13762982 -0.015016917 -0.16111599 -0.025523618
000200 9e 38 fd bd 79 49 21 be 9b fa e3 3d f0 62 e7 bc
       -0.123643145 -0.15750684 0.111317836 -0.02824542
000210 cc 0f 29 3e 55 71 8a 3d 1f c0 61 be d0 2e 24 3e
       0.16509932 0.067598976 -0.22045945 0.16033483
000220 46 29 1b 3e b5 27 58 3e 12 99 61 3e 42 76 06 bd
       0.15152463 0.21108897 0.22031048 -0.032827623
000230 00 71 8b 3d f5 20 be bc 2e 8d 2a 3e 8c 48 5b 3d
       0.068086624 -0.023209075 0.16655418 0.053535983
000240 2d 1f 60 be 79 05 80 3d de c5 2c 3c a0 79 d4 3d
       -0.21886893 0.06251044 0.010545222 0.10374761
000250 26 c8 93 3d 62 fc 9f bd 4d 4b 03 be a7 ba 5a be
       0.0721591 -0.0781181 -0.12821694 -0.21360265
000260 6c 2a 73 be 48 bb 29 bd 3a dd e1 bd 5f 6b 80 bd
       -0.23746651 -0.04143837 -0.11028524 -0.062704794
000270 66 82 fc bd 83 3a aa bd 6b 88 cf bd 0d 8f 72 3d
       -0.12329559 -0.083119415 -0.101334415 0.059218455
000280 2b 4b c1 3d ab 68 42 be 8d a6 20 be 33 e2 fb bd
       0.09438165 -0.1898524 -0.15688534 -0.122990035
000290 1f 32 b2 3c 53 dd a7 bd a3 f6 03 be c3 1d 4f be
       0.021752415 -0.08196511 -0.12887053 -0.20226197
0002a0 48 25 ab 3c 03 96 b3 bd 00 c1 0c be c3 c8 3d bb
       0.0208918 -0.08768847 -0.13745499 -0.0028958775
0002b0 15 19 83 3c 95 77 06 be c0 be 07 be 11 3d 42 3d
       0.016003171 -0.13131554 -0.13256359 0.04742152
0002c0 30 9c 04 be 4d 4f e5 bd b8 9f 85 bd 1d 0d 61 3b
       -0.12950206 -0.11196766 -0.065246046 0.0034340092
0002d0 4d f8 b2 bd f3 2c 0a be b0 1f 4a be 9b 30 18 be
       -0.08738766 -0.1349371 -0.1973865 -0.14862292
0002e0 26 8e d1 bc 51 d4 c2 bd 45 84 13 be 6e f7 70 be
       -0.025580477 -0.095131524 -0.14405926 -0.23531887
0002f0 d8 73 13 be 3a 23 1e bd 0c c5 f9 ba 38 57 08 be
       -0.1439966 -0.038607813 -0.0019055917 -0.13314521
000300 f2 ca 37 be d0 9a 34 be cc 9b 77 bd 6e 3f 65 bb
       -0.17948511 -0.17637181 -0.060451314 -0.0034980434
000310 e6 d9 83 bd b5 7a ac bd 55 2f 36 bd bf 48 ea bd
       -0.06438045 -0.08421842 -0.044478733 -0.114396565
000320 0c 6e f2 3d 6f ae 32 3e 59 4b 33 3d 7f be 76 3d
       0.11837396 0.17449354 0.04377303 0.060240265
000330 c9 58 45 3e f6 59 fd 3d c1 04 0c 3d 4a a3 59 3e
       0.1927215 0.12370674 0.03418422 0.21253696
000340 b2 43 50 3e 75 8a c8 3d 5c 7a a9 3c 35 54 f2 3d
       0.20338324 0.097920336 0.020688228 0.118324675
000350 36 6e 09 3e 34 23 8c 3d 47 27 04 3e 9a 48 d5 3d
       0.13420948 0.06842652 0.12905608 0.10414238
000360 84 00 00 3e c8 04 42 bd fd 1b 03 3d 24 73 16 3e
       0.12500197 -0.04736784 0.032009114 0.1469236
000370 6a fd 08 3d 91 e0 3e 3d 64 b7 ca bd 5b fa 59 3d
       0.0334448 0.046600882 -0.0989826 0.053217273
000380 4d 49 b1 3b 1f fd 8c 3d a7 57 82 3d e5 0e 85 3c
       0.0054103495 0.068842165 0.063643746 0.016242454
000390 e6 c6 fb bb 77 e3 62 3d 39 9a 4d 3d a7 24 3c 3d
       -0.0076836227 0.05539271 0.050195906 0.045933392
0003a0 01 85 18 3d 4f f3 16 bd 9f ff b9 3c 40 58 b0 3d
       0.037236217 -0.03685313 0.022704897 0.08610582
0003b0 3c 3b fa 3d 8f 0d 10 3e cb 71 ec 3d 50 a2 6f 3c
       0.12218329 0.14067672 0.11545142 0.014626101
0003c0 e0 02 42 3e 7c 9c 96 3e 0f 8d 7f 3d a6 94 0d 3e
       0.18946409 0.29416263 0.062390383 0.13826236
0003d0 b8 c6 d0 3c d0 3b 3e 3e a3 4a b8 3d ab 6d 25 3e
       0.025485381 0.18577504 0.08998611 0.16155116
0003e0 e0 f0 b7 3c c7 8f a0 bd 36 a0 08 3d ff ad ba 3d
       0.022453725 -0.07839923 0.033355914 0.09115218
0003f0 9c b5 9b 3d 00 f2 0a 3e 72 3c d5 3d c7 8f 0f 3d
       0.076029986 0.13568878 0.1041192 0.035049226

module.blazeBlock.1.mix_branch1.1.weight f4 [24]
000000 28 2f 7d 3f 9e bf 8a 3f 6d a2 7b 3f 34 b9 80 3f
       0.9890008 1.0839727 0.9829472 1.005652
000010 7a 25 8e 3f f5 c0 69 3f 4d 4a 78 3f f1 83 82 3f
       1.1105187 0.91310054 0.96988374 1.0196515
000020 70 f4 71 3f a8 42 6f 3f bf dc 66 3f 71 88 41 3f
       0.9451361 0.93461084 0.9018058 0.7559882
000030 ac e3 4b 3f d1 a5 86 3f 72 3e 8d 3f 8b ae 6a 3f
       0.79644275 1.0519353 1.1034682 0.9167258
000040 35 b8 49 3f b3 40 89 3f 49 ab 70 3f f2 2d 94 3f
       0.787967 1.072287 0.9401136 1.1576521
000050 e0 9f 72 3f ad ef 92 3f 3a 03 9e 3f 47 a8 8e 3f
       0.947752 1.1479393 1.2344735 1.1145104

module.blazeBlock.1.mix_branch1.1.bias f4 [24]
000000 c4 ad 93 33 81 fe 74 b3 0d 8e 6f 31 89 0b 13 b2
       6.876829e-08 -5.7042147e-08 3.4859824e-09 -8.559149e-09
000010 51 b2 10 b3 ab 34 82 b0 cc 85 a4 33 b7 00 a9 b2
       -3.368979e-08 -9.473714e-10 7.6611826e-08 -1.9674514e-08
000020 a9 cd 41 b2 0f 5c 88 32 a4 3a 73 b2 f4 8d 5f b2
       -1.128084e-08 1.5874347e-08 -1.4157795e-08 -1.3012585e-08
000030 ce ef 6f 32 00 b0 12 34 71 83 31 b2 a0 96 e2 30
       1.3966156e-08 1.3661338e-07 -1.0332642e-08 1.6486474e-09
000040 5a 6b d7 32 38 17 d5 33 4b c3 de 32 50 b3 6d 33
       2.5078112e-08 9.922809e-08 2.593301e-08 5.5343946e-08
000050 f1 42 64 33 a9 48 3b b3 b5 13 06 32 3e 75 47 b2
       5.314627e-08 -4.3605414e-08 7.804307e-09 -1.1609982e-08

module.blazeBlock.1.mix_branch1.1.running_mean f4 [24]
000000 b8 f2 03 bf d3 fc 42 3f 01 db 42 bf bc 20 d9 3e
       -0.51542234 0.7616703 -0.76115423 0.42407787
000010 cc 86 fa 3e 42 10 01 3f ed 1f a4 3e 8d 2b de be
       0.48930967 0.5041543 0.32055607 -0.43392602
000020 21 f8 8c bd d9 66 09 bd fc 64 dc be 43 95 93 bd
       -0.06883264 -0.03354535 -0.43045795 -0.07206204
000030 ab e7 27 3f ec 2d 1e bf b3 44 fd 3e e9 ad 98 be
       0.6558787 -0.6178882 0.49466476 -0.29820183
000040 ae 16 0f bf 26 e2 05 3e 33 99 26 bf ca 81 48 bf
       -0.5589398 0.1307455 -0.65077513 -0.7832304
000050 83 64 48 3f 9e 6d d1 3e e2 db 1b 3f 08 81 80 be
       0.7827837 0.40903944 0.6088239 -0.25098443

module.blazeBlock.1.mix_branch1.1.running_var f4 [24]
000000 a4 1f 18 3f e6 2c 14 3f 71 ad b3 3e cd 9c 73 3e
       0.5942328 0.5788101 0.35093263 0.23790284
000010 fe e8 d8 3e f0 a3 c8 3e 7a 06 2f 3e 86 80 bf 3e
       0.4236526 0.39187574 0.17092314 0.37402743
000020 61 05 d6 3d 1b a0 64 3e 08 ff 91 3e c3 81 49 3e
       0.10450245 0.223267 0.28514886 0.19678406
000030 de 0f dd 3e 38 68 d7 3e 93 3a d3 3e 9a 0f be 3e
       0.43176168 0.420717 0.41255626 0.37121278
000040 b8 24 bb 3e cc 9c 4a 3e 0e f9 1d 3f 0d 90 51 3f
       0.36551452 0.19786376 0.6170815 0.8186043
000050 dc e2 40 3f 93 ef a9 3e e9 e8 08 3f fd 0c d9 3e
       0.7534616 0.33190593 0.5348039 0.42392722
