checkpoint/EffiNet.ckpt (torch_old, 300909 bytes, 103 tensors)

firstconv.0.weight f4 [24, 3, 3, 3]
0	0x3d579749	0.05263451
1	0x3e6b22ac	0.22962445
2	0xbd939304	-0.072057754
3	0xbe603eb9	-0.21898927
4	0xbe0634a2	-0.13106015
5	0xbce9b144	-0.02852691
6	0xbd934511	-0.07190908
7	0x3d5ef58b	0.054433387
8	0xbdfedf47	-0.124449305
9	0x3decb33f	0.11557626
10	0x3cc39fdf	0.023879943
11	0x3b61e6a8	0.0034469757
12	0xbe1fc636	-0.15602955
13	0xbe170934	-0.14749604
14	0xbe1860fe	-0.1488075
15	0x3d7a61a5	0.061128277
16	0x3d1c3ac9	0.038142
17	0x3ca3095f	0.01990193
18	0xbe2ed4b1	-0.17073323
19	0xbe132398	-0.14369047
20	0xbc4cd898	-0.012502812
21	0x3e9eddd4	0.31028616
22	0x3c9641e9	0.018341975
23	0x3e2c04f7	0.16798769
24	0x3d5f2818	0.054481596
25	0xbc8d64da	-0.017260004
26	0x3dcb4660	0.09925532
27	0xbed7f3fa	-0.42178327
28	0xbed7f451	-0.42178586
29	0xbe793576	-0.243368
30	0xbe3b0dc5	-0.18266971
31	0xbd01fe9a	-0.031736948
32	0xbe9401c1	-0.28907588
33	0xbda3c958	-0.07997388
34	0xbe85c7a7	-0.26128885
35	0xbeafb771	-0.34319642
36	0xbd89a5b5	-0.06721059
37	0x3d4dc182	0.05023337
38	0x3c981552	0.018564854
39	0x3e83f0f5	0.25769773
40	0xbc780e44	-0.01514012
41	0xbe117ceb	-0.14207809
42	0x3ebe0a07	0.37117025
43	0xbd4bc607	-0.0497494
44	0xbda883de	-0.08228277
45	0xbd47d61f	-0.048788186
46	0x3e38475d	0.17995973
47	0x3e8c2ffe	0.27380365
48	0x3dcb338e	0.09921943
49	0x3e1c64dc	0.1527285
50	0x3ea59241	0.32338145
51	0x3ee4ba6c	0.4467348
52	0x3e8b44d9	0.27200964
53	0x3e533e84	0.20629317
54	0xbcd85177	-0.026406033
55	0xbe66aca3	-0.22526793
56	0xbdb939af	-0.090442054
57	0xbe2568a5	-0.161532
58	0xbe09fd17	-0.13475452
59	0xbe2176e7	-0.15768014
60	0x3dc82df7	0.09774392
61	0x3ddbe9ce	0.10737954
62	0xbe0e2383	-0.13880734
63	0x3e0f951f	0.14021729
64	0x3e4fa074	0.20276052
65	0xbd0668d3	-0.032814812
66	0x3e827559	0.25480154
67	0x3e77525c	0.24152511
68	0x3e149f13	0.14513807
69	0x3ebd7daa	0.37009937
70	0x3c60750b	0.01369978
71	0xbd512532	-0.051060863
72	0xbd3e1028	-0.046402127
73	0xbcce8d26	-0.02521379
74	0xbda440f1	-0.08020199
75	0x3e843d67	0.25828096
76	0x3c5eac32	0.013590859
77	0xbea85ff7	-0.32885715
78	0x3e0bab6d	0.13639612
79	0xbdc910e6	-0.09817676
80	0xbe8dd8ee	-0.27704567
81	0x3c9fab0d	0.019490743
82	0x3ba50a96	0.0050366623
83	0xbe925f2b	-0.28588232
84	0xbdbbd235	-0.09170953
85	0xbe3aefe4	-0.18255574
86	0xbe287559	-0.16451015
87	0xbe547783	-0.20748715
88	0xbd9a3f0d	-0.07531557
89	0xbe760e06	-0.24028787
90	0x3dd7f597	0.105448894
91	0x3e2581be	0.16162774
92	0x3e8adc5f	0.27121255
93	0x3ded35d3	0.11582532
94	0xbe0920aa	-0.13391367
95	0xbcb32671	-0.021868916
96	0x3d9df7e3	0.07713296
97	0x3d3ff308	0.046862632
98	0xbdbf010d	-0.09326372
99	0xbe61e90c	-0.22061557
100	0x3e85f239	0.26161364
101	0x3e646f9a	0.22308198
102	0xbe192f6d	-0.14959498
103	0x3d72287d	0.059120644
104	0xbd864558	-0.06556195
105	0xbd83f0c6	-0.06442408
106	0xbbd346c8	-0.0064476468
107	0x3b04cf60	0.0020265207
108	0x3d1c1639	0.03810713
109	0x3c5b951f	0.013402252
110	0xbdf06be4	-0.117393285
111	0x3ddf477e	0.10902308
112	0xbe543846	-0.20724592
113	0x3d7678d2	0.060173817
114	0x3e799a62	0.24375299
115	0xbe07956f	-0.13240598
116	0xbcbab323	-0.022790497
117	0x3d2a620f	0.041597422
118	0x3d6d2bde	0.057903163
119	0x3dde6031	0.10858191
120	0x3b9b9707	0.0047482285
121	0xbdbabc27	-0.091179185
122	0xbe0f3a74	-0.13987142
123	0x3e0102ae	0.12598678
124	0xbe52d8ba	-0.20590487
125	0xbda81ffd	-0.08209226
126	0xbe0cd2a9	-0.13752235
127	0xbba787a0	-0.0051126033
128	0x3c5341d1	0.01289411
129	0xbe900e2a	-0.28135806
130	0xbd35d307	-0.044390704
131	0x3d91151b	0.07084104
132	0xbe33c2e3	-0.17554812
133	0x3ceab143	0.028648978
134	0x3e6016b7	0.21883665
135	0xbe1ff5e7	-0.15621148
136	0xbcbcb110	-0.023033649
137	0x3d9d2bcc	0.07674369
138	0xbd363d5d	-0.044492114
139	0x3e350130	0.17676234
140	0x3eb7c06f	0.35889003
141	0x3bfaee97	0.0076578367
142	0x3e76ea1d	0.24112745
143	0x3e36e0af	0.17859147
144	0xbea44224	-0.3208171
145	0xbe70f8ab	-0.2353236
146	0x3df39fc6	0.11895709
147	0xbe31352c	-0.1730544
148	0xbe6e121b	-0.23249094
149	0xbe0f20b6	-0.13977322
150	0xbeaee4af	-0.34158847
151	0xbe827821	-0.25482276
152	0x3c80918e	0.015694406
153	0x3dfd4e9d	0.1236851
154	0x3e3ee1b0	0.1864078
155	0xbd31516a	-0.043290533
156	0x3cdd5883	0.027019745
157	0xbe0b6226	-0.1361166
158	0x3d2fae64	0.04289092
159	0xbe5b31c7	-0.21405707
160	0xbd06f1b6	-0.032945357
161	0x3d864544	0.0655618
162	0xbdcf5f15	-0.10125557
163	0x3e683ff5	0.22680648
164	0x3eae1603	0.3400117
165	0xbe85cf29	-0.26134613
166	0xbdfaf334	-0.122534186
167	0x3ed579c6	0.41694468
168	0xbf001499	-0.5003143
169	0xbeddf02e	-0.43347305
170	0x3e895e6b	0.26829848
171	0xbddc51cc	-0.10757789
172	0x3f175271	0.5911017
173	0x3f0cf0c1	0.5505486
174	0xbf1c6550	-0.6109209
175	0x3d444972	0.047921605
176	0x3ee231fe	0.44178766
177	0xbf12a4af	-0.5728254
178	0xbe952799	-0.29131773
179	0x3df76e91	0.12081636
180	0xbd9d02cd	-0.0766655
181	0x3e8d7635	0.27629247
182	0x3ecc3c8d	0.39889947
183	0xbea77c97	-0.32712242
184	0x3d23dde9	0.040006552
185	0x3ec5b1e6	0.38612288
186	0xbed72606	-0.42021197
187	0xbebcbb1b	-0.368615
188	0x3d44f246	0.048082612
189	0xbdbd2da9	-0.092372246
190	0x3e4f0043	0.20214944
191	0x3d0f23c3	0.034946214
192	0xbe7b44b3	-0.24537925
193	0x3e5d5513	0.21614484
194	0xbd482eb0	-0.04887265
195	0xbe0f294a	-0.13980594
196	0x3d7d794d	0.06188326
197	0x3cf27e49	0.029601233
198	0xbe867268	-0.2625916
199	0x3ddee895	0.10884205
200	0x3d1cd4b3	0.038288783
201	0xbbc129e4	-0.0058948863
202	0x3d38b461	0.045093898
203	0x3c5b0f14	0.013370294
204	0xbe3200b1	-0.17383076
205	0x3e91c588	0.28471017
206	0xbd07e604	-0.033178344
207	0x3eb5ef28	0.35534024
208	0xbea65583	-0.32487115
209	0xbc9e17ff	-0.019298552
210	0x3e8ef4a9	0.27921036
211	0xbeae68ff	-0.3406448
212	0x3d97d7ed	0.074142314
213	0x3e7fa0c9	0.24963678
214	0xbe9d8e45	-0.30772606
215	0x3b76d4c6	0.0037663444
216	0xbdd9bbce	-0.10631524
217	0xbdd022ce	-0.101628885
218	0x3e2bfd1a	0.1679577
219	0xbe0e3aaa	-0.13889566
220	0x3c76d17d	0.015064594
221	0x3e7dc322	0.24781469
222	0x3de9824c	0.11401805
223	0x3da24b2f	0.079244964
224	0xbde3c581	-0.11121655
225	0xbe67774e	-0.22604105
226	0xbea36cd2	-0.3191896
227	0xbd3e6156	-0.046479546
228	0xbe3e90d7	-0.1860994
229	0x3daca070	0.084290385
230	0x3e9a8d72	0.3018604
231	0x3e931965	0.28730312
232	0x3ec32ad3	0.3811861
233	0x3f11e947	0.5699658
234	0xbe7b3337	-0.24531256
235	0xbec4952e	-0.38395065
236	0xbd174f79	-0.036941025
237	0xbeda8aed	-0.42684117
238	0xbe17fdea	-0.14842954
239	0x3e1119b2	0.14169958
240	0xbdb692c9	-0.08914716
241	0x3e744494	0.23854285
242	0x3dea367d	0.11436174
243	0x3ebeac88	0.37241006
244	0x3f08558e	0.53255546
245	0x3e802de8	0.25035024
246	0x3e6d22ea	0.2315785
247	0xbe22a7ab	-0.15884273
248	0xbd8f3b8d	-0.0699378
249	0xbef30204	-0.47462475
250	0xbf079113	-0.5295574
251	0xbeb521c6	-0.3537733
252	0x3f44f4d1	0.7693606
253	0x3f1f2ea3	0.62180537
254	0x3f0d7d8c	0.55269694
255	0x3e4cbe0f	0.19994377

firstconv.0.bias f4 [24]
0	0xbe1cc948	-0.15311158
1	0xbd3d8724	-0.04627146
2	0x3dd65fb4	0.10467473
3	0xbda0aa9c	-0.07845041
4	0x3e258d30	0.1616714
5	0xbe079d07	-0.13243495
6	0xbe257c02	-0.16160586
7	0xbdb0a801	-0.08625794
8	0x3cff5d32	0.031172369
9	0x3e3570ca	0.17718807
10	0xbdbc2452	-0.09186615
11	0x3d8cf34d	0.068823434
12	0xbd45ba02	-0.048273094
13	0xbd2abc30	-0.041683376
14	0x3e10e8df	0.14151333
15	0xbe18b78d	-0.14913769
16	0x3ca7e38f	0.02049425
17	0x3e39547e	0.18098637
18	0xbcd8b954	-0.026455559
19	0x3e1900de	0.14941737
20	0xbd72c346	-0.05926826
21	0x3e1ea355	0.15491994
22	0xbe3ea1a3	-0.18616347
23	0xbce33a42	-0.02773774

firstconv.1.weight f4 [24]
0	0x3ec90a76	0.39265794
1	0x3f2d25a1	0.6763554
2	0x3f16f275	0.5896371
3	0x3f5db78a	0.86608183
4	0x3ea8db9b	0.32980046
5	0x3eaf60de	0.3425359
6	0x3f5dad9c	0.8659303
7	0x3ebf6ccc	0.37387693
8	0x3f682e70	0.9069586
9	0x3f1af996	0.6053709
10	0x3edb184a	0.4279197
11	0x3ef0fde5	0.47068706
12	0x3f398455	0.7246755
13	0x3f5c9dc9	0.8617826
14	0x3ec16f2a	0.37780124
15	0x3ea39c05	0.3195497
16	0x3f30e2a9	0.69095856
17	0x3f1f2c6d	0.62177163
18	0x3f333348	0.70000124
19	0x3e0fe59a	0.1405243
20	0x3f5275ab	0.822108
21	0x3f734f2f	0.950427
22	0x3eb69ab3	0.356649
23	0x3f173ce9	0.59077317

firstconv.1.bias f4 [24]
0	0x3e233b9f	0.15940712
1	0x3df0a931	0.11751021
2	0xbec74fd3	-0.3892809
3	0x3e454a00	0.1926651
4	0x3e9a3634	0.3011948
5	0x3eda95fd	0.42692557
6	0xbda75e09	-0.08172233
7	0xbbc695c0	-0.006060332
8	0xbe8e6998	-0.27814937
9	0xbd9be9d5	-0.07612959
10	0xbe4515e3	-0.1924663
11	0x3d600139	0.054688666
12	0x3dc41952	0.09575142
13	0xbe104be7	-0.14091454
14	0xbe5d6e40	-0.21624088
15	0x3eb71899	0.35760954
16	0x3ea20cfc	0.3165053
17	0xbe457bf1	-0.19285561
18	0xbd90ed49	-0.070765086
19	0x3e768238	0.24073112
20	0x3d00e029	0.031463776
21	0x3e868690	0.26274538
22	0x3ed78bc2	0.42098814
23	0xbd7b8ad3	-0.06141169

firstconv.1.running_mean f4 [24]
0	0xbe262d15	-0.16228135
1	0xbe43a464	-0.19105679
2	0xbe82fc10	-0.25582933
3	0xbeeb5fb9	-0.45971468
4	0x3d693a50	0.056940377
5	0x3dfb21e3	0.12262323
6	0xbe6953c1	-0.22785856
7	0xbdb44ebd	-0.08804081
8	0xbe24c727	-0.16091596
9	0x3d97680d	0.07392893
10	0xbefed262	-0.49769884
11	0xbd859464	-0.06522444
12	0xbf5d0e9d	-0.86350423
13	0xbd8acd14	-0.06777397
14	0x3ed6e98e	0.41975063
15	0xbec4cc6b	-0.3843721
16	0x3c9267cd	0.017871762
17	0x3ca06e52	0.019583855
18	0x3e43be84	0.19115645
19	0xbd7b4226	-0.06134238
20	0xbdc8c699	-0.098035045
21	0x3e211182	0.15729335
22	0x3e38aa45	0.18033703
23	0xbddd1723	-0.107954286

firstconv.1.running_var f4 [24]
0	0x3c9a7a2a	0.01885708
1	0x3e448f97	0.191954
2	0x3dfce9e4	0.123492986
3	0x3df76e9b	0.12081643
4	0x3d4d07c4	0.050056234
5	0x3e80393c	0.25043666
6	0x3edb838a	0.42873794
7	0x3b26c7c9	0.002544867
8	0x3e3cbb7e	0.18430898
9	0x3f158496	0.58405435
10	0x3dacfaa7	0.08446246
11	0x3c9f950a	0.019480247
12	0x3ed375bd	0.41300765
13	0x3cb79fa6	0.022414993
14	0x3e70ce4e	0.23516199
15	0x3e39907b	0.18121521
16	0x3e1d04d5	0.15333875
17	0x3d8c8d35	0.068628706
18	0x3d92957e	0.071574196
19	0x3d59c544	0.053166643
20	0x3d5e14f0	0.054219186
21	0x3e6e4921	0.23270084
22	0x3dcce32e	0.100042686
23	0x3f0f377a	0.55944026

blazeBlock.0.mix_branch1.0.mixed_depthwise_conv.0.weight f4 [12, 1, 3, 3]
0	0x3eb0a346	0.34499568
1	0xbda1ec21	-0.07906366
2	0x3e9f0130	0.31055593
3	0x3cedc98f	0.029026775
4	0xbe44601e	-0.19177291
5	0x3e22ab3a	0.1588563
6	0xbed3053f	-0.4121494
7	0xbd82f21f	-0.06393837
8	0xbe3d3709	-0.18478025
9	0xbe5d1656	-0.21590552
10	0xbe319825	-0.17343195
11	0x3e198263	0.14991145
12	0xbea7d8ac	-0.32782495
13	0x3d0ffe79	0.035154793
14	0xbdaaf470	-0.08347404
15	0xbe6ed768	-0.23324358
16	0xbe8b3fcf	-0.2719712
17	0xbe1db972	-0.15402773
18	0x3e90a946	0.28254145
19	0xbd47489e	-0.048653238
20	0x3d24a6f0	0.040198267
21	0x3dd043a5	0.10169152
22	0x3e94121f	0.28920075
23	0x3e9a0c6e	0.30087608
24	0x3eb04e58	0.34434772
25	0xbd845d98	-0.06463164
26	0x3d31f802	0.04344941
27	0xbe574166	-0.21021041
28	0xbe09a863	-0.1344314
29	0x3e808c72	0.2510715
30	0x3d287122	0.041123517
31	0xbecc3559	-0.3988445
32	0x3e53ca11	0.20682551
33	0xbe8cb02f	-0.27478167
34	0xbe115c49	-0.1419536
35	0x3e85241e	0.26004118
36	0x3d74e196	0.059785448
37	0x3d637ba4	0.055537835
38	0xbe41fa1b	-0.18943064
39	0x3ea42bb9	0.32064608
40	0xbe05da55	-0.13071568
41	0xbeb81932	-0.35956722
42	0x3e8b9db6	0.2726876
43	0xbe26f98e	-0.16306135
44	0xbe67f511	-0.22652079
45	0x3dcebb6a	0.1009434
46	0x3e8f080e	0.27935833
47	0xbb195afe	-0.0023400183
48	0x3e4626a5	0.19350679
49	0x3e8bcf63	0.2730666
50	0x3e85e892	0.26154
51	0xbe17ac03	-0.14811711
52	0x3d4a42f6	0.049380265
53	0xbcf41d51	-0.029799135
54	0xbcd4ab18	-0.02596049
55	0x3e116852	0.14199951
56	0x3e6c3fbc	0.23071188
57	0x3e7d42cb	0.24732511
58	0x3e87fc4c	0.26559675
59	0x3e2c24f3	0.1681097
60	0x3e4284fc	0.18996042
61	0x3e790ad8	0.24320543
62	0x3e0b63f1	0.13612343
63	0xbe97b3eb	-0.29629454
64	0xbd9a6cac	-0.07540259
65	0x3e8ec01b	0.2788094
66	0xbe98e2b8	-0.29860473
67	0x3e2acb32	0.16679075
68	0x3e28991f	0.16464661
69	0xbe73cc4d	-0.23808403
70	0xbde80ea5	-0.11330918
71	0x3eb800d6	0.35938138
72	0x3a5c4419	0.00084024813
73	0x3dd428b8	0.10359329
74	0x3df5f730	0.12010038
75	0x3dc3a7f1	0.09553517
76	0x3ea8a842	0.3294087
77	0x3e8d474f	0.27593467
78	0x3e767f1e	0.24071929
79	0x3d03d0f3	0.03218169
80	0x3edf484b	0.43609843
81	0xbe262624	-0.16225487
82	0xbc629096	-0.013828417
83	0xbed758c1	-0.420599
84	0xbe471673	-0.19442157
85	0xbdafed9d	-0.08590243
86	0xbec2ba33	-0.38032684
87	0xbe020895	-0.12698586
88	0xbe4f4011	-0.20239283
89	0xbdfddf1c	-0.1239607
90	0xbe49c407	-0.19703685
91	0xbe9e28b3	-0.30890426
92	0xbd9a6871	-0.07539452
93	0x3d8d307f	0.068940155
94	0x3e168379	0.1469859
95	0x3e43a5bb	0.1910619
96	0x3e943839	0.28949144
97	0x3e4d9e7e	0.20079991
98	0xbd13d1a0	-0.036088586
99	0xbdd868e8	-0.10566884
100	0xbe6c75a7	-0.23091756
101	0xbe859eb8	-0.26097655
102	0xbad4d4e1	-0.0016237759
103	0xbdacc5a3	-0.08436134
104	0x3db7c367	0.08972817
105	0xbd4b2308	-0.049593955
106	0x3e8ca854	0.27472174
107	0xbe84b149	-0.25916508

blazeBlock.0.mix_branch1.0.mixed_depthwise_conv.1.weight f4 [12, 1, 5, 5]
0	0x3e07f775	0.13277991
1	0x3e14f493	0.14546423
2	0x3e7c739f	0.24653481
3	0xbcd4e3ed	-0.02598759
4	0x3da3b701	0.079938896
5	0x3e1b6c2e	0.15177986
6	0xbd9df35b	-0.07712432
7	0x3d3fa33b	0.046786528
8	0x3e07418a	0.13208595
9	0xbd8880d0	-0.06665194
10	0x3cdf51f2	0.027260754
11	0xbcd92b9d	-0.026510054
12	0xbd95e801	-0.07319642
13	0x3e034c50	0.1282208
14	0xbd6646ec	-0.05621998
15	0x3df490a9	0.11941654
16	0x3e0fe180	0.14050865
17	0xbba8c3ab	-0.0051502786
18	0x3e66c999	0.22537841
19	0x3d89abee	0.06722246
20	0x3d038840	0.03211236
21	0xbd971473	-0.07376947
22	0x3cc18e80	0.02362752
23	0xbb65dd8f	-0.0035074686
24	0x3dec3618	0.11533755
25	0xbcb66d77	-0.022268994
26	0x3e819a0f	0.2531285
27	0x3dbe5d0d	0.09295092
28	0xbe1056a1	-0.14095546
29	0x3d81b85e	0.063339934
30	0xbde51f44	-0.11187604
31	0xbbd7f2d6	-0.0065902276
32	0xbc48e728	-0.012262143
33	0xbdab0ef3	-0.08352461
34	0xbdd94311	-0.10608495
35	0x3d21faf3	0.039545964
36	0x3e860140	0.2617283
37	0x3d9e0f6d	0.07717786
38	0x3ae38003	0.0017356876
39	0x3d26dc10	0.04073721
40	0x3e3a0c5f	0.18168782
41	0x3eb22be8	0.34799123
42	0x3e70caee	0.23514912
43	0x3d4c21a8	0.049836785
44	0x3e8fa02d	0.28051892
45	0x3d42f5fe	0.047597878
46	0x3e64e308	0.2235223
47	0x3da61c50	0.08110869
48	0xbe3a3924	-0.1818586
49	0x3c318b58	0.010836445
50	0x3e61eb60	0.22062445
51	0xbdc1eacb	-0.09468611
52	0x3d459b5a	0.048243858
53	0xbd43618b	-0.047700446
54	0x3e2785b9	0.16359605
55	0xbd9879f2	-0.07445134
56	0x3e21a417	0.15785252
57	0x3e53efe0	0.20696974
58	0x3d2bae82	0.04191447
59	0xbbc72937	-0.0060779112
60	0x3e7e717f	0.24847983
61	0xbd636cf2	-0.05552382
62	0xbd07b648	-0.03313282
63	0xbdea66c3	-0.114453815
64	0xbd08879e	-0.03333246
65	0x3ddc3c78	0.10753721
66	0x3d8b3301	0.067968376
67	0xbca0d6e4	-0.019633718
68	0xbe545bd8	-0.2073816
69	0x3d309737	0.04311296
70	0x3c8f162e	0.01746663
71	0x3afdcb66	0.0019362986
72	0x3dda1bcc	0.10649833
73	0x3df9d660	0.12199092
74	0xbe0f24fa	-0.13978949
75	0x3a1be163	0.0005946366
76	0xbeb97453	-0.3622156
77	0xbf00615c	-0.5014856
78	0xbe9c17fe	-0.30487055
79	0x3dd1b13d	0.10238884
80	0x3d0ce2e4	0.034396067
81	0xbd900a70	-0.07033241
82	0xbc884431	-0.016634079
83	0xbdec4a16	-0.11537568
84	0xbb940f93	-0.004518458
85	0x3e24212f	0.16028284
86	0xbdae3fb6	-0.08508246
87	0x3eab5138	0.33460402
88	0x3e8829c8	0.26594377
89	0x3dfed733	0.1244339
90	0xbe9c5272	-0.3053165
91	0x3cf41cf1	0.029798957
92	0x3db8e29b	0.090275966
93	0x3e4dc6f0	0.2009542
94	0xbdaed8a9	-0.085374184
95	0xbe1d8f06	-0.1538659
96	0x3de2aceb	0.11068138
97	0x3eec3b6d	0.46139088
98	0x3ea5a23f	0.32350346
99	0xbd9a3a21	-0.075306185
100	0x3c1184d1	0.008881764
101	0xbc47cf31	-0.012195394
102	0xbdbf8d5b	-0.09353133
103	0xbd54b26e	-0.051927976
104	0xbc6ad7fc	-0.014333721
105	0x3d83d576	0.06437199
106	0x3e0d7baa	0.13816705
107	0xbcba5c9e	-0.022749241
108	0xbdb16c69	-0.08663256
109	0xbd968db9	-0.0735125
110	0x3e69e854	0.22842532
111	0x3e254e09	0.1614305
112	0xbe823b07	-0.2543566
113	0xbe8ef1ab	-0.27918753
114	0x3b607cc6	0.0034254058
115	0x3e1cbda9	0.15306725
116	0x3dbf7af6	0.09349625
117	0xbe99715a	-0.29969293
118	0xbe9d4653	-0.30717716
119	0x3bab2036	0.0052223457
120	0x3e350cb2	0.17680624
121	0xbe7b5a7c	-0.24546236
122	0xbde64559	-0.11243696
123	0xbe564f1e	-0.20928618
124	0x3cd0e911	0.02550176
125	0xbcce617d	-0.02519297
126	0x3df7ec91	0.12105668
127	0xbe85347f	-0.26016614
128	0xbe674c2b	-0.2258765
129	0x3ddb51d0	0.10708964
130	0x3db152e2	0.08658387
131	0x3d32bbff	0.04363632
132	0x3d51064b	0.051031392
133	0xbe590b2d	-0.2119567
134	0x3de7d680	0.113202095
135	0xbe7915b8	-0.24324691
136	0x3c220356	0.009888491
137	0xbe2d8c4b	-0.16948049
138	0xbdc4f149	-0.09616334
139	0x3d0c9adc	0.034327373
140	0xbdfd9678	-0.12382215
141	0xbd4f25c1	-0.050573114
142	0xbe583366	-0.21113357
143	0xbe494e86	-0.1965886
144	0x3db15199	0.08658142
145	0xbdc397f4	-0.09550467
146	0xbdd4f98d	-0.103991605
147	0xbd6f9cb6	-0.05849906
148	0xbe0cafc4	-0.13738924
149	0xbe01bba8	-0.12669241
150	0x3d7b756d	0.061391283
151	0x3da37c36	0.07982676
152	0xbd2043aa	-0.03912703
153	0xbe2a6ffc	-0.16644281
154	0xbd87872d	-0.066175796
155	0x3da52dd4	0.08065382
156	0xbd08fd6f	-0.033444818
157	0x3dc10969	0.09425623
158	0x3e6f155f	0.23347996
159	0xbe497404	-0.19673163
160	0xbdca48c3	-0.098771594
161	0x3de7c0cc	0.1131607
162	0x3e3b9b24	0.183209
163	0xbd7d5632	-0.06184978
164	0x3de8993b	0.113573514
165	0x3e56d6ea	0.2098042
166	0x3e00891a	0.125523
167	0x3d2e093f	0.042489287
168	0x3e145f4e	0.14489481
169	0x3e2792d4	0.16364604
170	0xbd95284b	-0.07283076
171	0x3d5c4d18	0.05378446
172	0x3dfb567a	0.122723535
173	0x3db3e16b	0.087832294
174	0xbe4f5047	-0.20245467
175	0x3e323163	0.17401652
176	0xbd0f8346	-0.0350373
177	0xbe1deab0	-0.15421557
178	0x3dd5ef7d	0.104460694
179	0x3cb21730	0.021739572
180	0x3e048dfa	0.12944785
181	0xbe08ec81	-0.13371469
182	0xbe407d11	-0.18797709
183	0xbd423b54	-0.04741986
184	0xbbea67bc	-0.0071534794
185	0x3e1d8208	0.15381634
186	0xbdaf9e10	-0.0857507
187	0x3ba0e0d1	0.0049096127
188	0xbdac4777	-0.08412068
189	0xbdf0190d	-0.11723528
190	0x3e0c6da4	0.137137
191	0xbd91c573	-0.071177386
192	0xbd95994e	-0.07304631
193	0xbe0852b2	-0.13312796
194	0xbdb2cfcb	-0.087310396
195	0x3dbeaf05	0.09310726
196	0x3d606042	0.0547793
197	0xbde75a5a	-0.1129653
198	0x3d4f18f5	0.05056091
199	0xbe2c2bfb	-0.16813652
200	0xbdf63dde	-0.12023519
201	0x3d5fa71c	0.054602727
202	0xbe261ef0	-0.16222739
203	0xbe161d77	-0.14659677
204	0xbdb75952	-0.089525834
205	0xbd5b2f07	-0.053511646
206	0x3d5948af	0.053047832
207	0x3d8ac17b	0.06775185
208	0x3e0fb583	0.14034085
209	0xbdec0537	-0.11524432
210	0x3ba5a06e	0.005054525
211	0x3e2d7bc9	0.16941752
212	0x3e816406	0.25271624
213	0x3da0cd55	0.07851664
214	0xbda2252a	-0.07917245
215	0x3dd985bf	0.10621213
216	0x3e5977c2	0.2123709
217	0x3cde658a	0.027148027
218	0x3d1c5f32	0.038176723
219	0x3e2d4421	0.1692052
220	0xbd475c94	-0.048672274
221	0xbe3f6e7d	-0.18694492
222	0xbd673bed	-0.056453634
223	0x3e117425	0.14204462
224	0xbd882604	-0.06647876
225	0x3dadf6f7	0.084943704
226	0x3da3c58a	0.07996662
227	0xbd6cdd84	-0.05782844
228	0xbd764d77	-0.06013247
229	0xba951f86	-0.0011377193
230	0x3e186b05	0.14884575
231	0x3dec7fb1	0.11547793
232	0xbddd2f8d	-0.10800085
233	0xbd12b3ae	-0.035815887
234	0xbd89ff4e	-0.06738149
235	0x3e8a6b70	0.27035093
236	0x3ca40d83	0.020025974
237	0x3e8b8a91	0.27254155
238	0x3c8602ea	0.016358811
239	0xbcd8e273	-0.026475167
240	0x3dce95e0	0.1008718
241	0x3d82d6fb	0.063886605
242	0x3e4a8d21	0.19780399
243	0x3e2c6ca8	0.16838324
244	0xbd188516	-0.037236296
245	0xbd639295	-0.055559713
246	0xbe4517f9	-0.19247426
247	0xbe2235dc	-0.15840858
248	0x3d678926	0.05652728
249	0x3e279f87	0.16369449
250	0xbe48aa04	-0.19596106
251	0xbd4b15b9	-0.049581263
252	0x3da47f3c	0.080320805
253	0x3da085f1	0.07838047
254	0x3e17800b	0.14794938
255	0xbddf6465	-0.109078206

blazeBlock.0.mix_branch1.1.weight f4 [24]
0	0x3e9eed33	0.31040344
1	0x3e9ff7af	0.31243655
2	0x3e93f160	0.28895092
3	0x3ebbbbee	0.36666816
4	0x3eeb2f17	0.45934364
5	0x3f02caab	0.51090497
6	0x3f379c02	0.71722424
7	0x3e4ce313	0.20008497
8	0x3ec3bc89	0.38229778
9	0x3f654fc5	0.89574844
10	0x3e4df085	0.20111282
11	0xbdde4da9	-0.10854656
12	0x3ec102e8	0.3769753
13	0x3ed9bcff	0.42527005
14	0x3e36884d	0.17825432
15	0x3f0657a9	0.5247751
16	0x3efdc724	0.49565995
17	0x3e5f350b	0.21797578
18	0x3e88dde5	0.26731792
19	0x3ebbead2	0.3670259
20	0x3e6f7518	0.23384511
21	0x3eb811a6	0.35950965
22	0x3ea069c1	0.31330684
23	0x3f3fcd31	0.7492247

blazeBlock.0.mix_branch1.1.bias f4 [24]
0	0x349d93e1	2.9351125e-07
1	0x330a44a0	3.2193043e-08
2	0x34c3917c	3.6427434e-07
3	0x3348e365	4.6772943e-08
4	0xb4932589	-2.7408194e-07
5	0x3386f345	6.284112e-08
6	0xb3141564	-3.447839e-08
7	0xb58bc787	-1.0414377e-06
8	0x34f3635b	4.5334568e-07
9	0x33080c28	3.1676024e-08
10	0x347d5a6d	2.3595358e-07
11	0xb422055c	-1.5089375e-07
12	0xb510adee	-5.389728e-07
13	0xb4cd6d5f	-3.8263804e-07
14	0xb1a0f009	-4.6839017e-09
15	0x34afc220	3.2737535e-07
16	0x34dd15f5	4.1180434e-07
17	0x34b4581a	3.3591715e-07
18	0x35435473	7.276605e-07
19	0xb4c0fad1	-3.594528e-07
20	0x35557a7c	7.952692e-07
21	0xb3d1196a	-9.736944e-08
22	0xb3a13620	-7.506992e-08
23	0xb52b0cf9	-6.372134e-07

blazeBlock.0.mix_branch1.1.running_mean f4 [24]
0	0xbcaafcc6	-0.020872485
1	0xbec2c343	-0.38039598
2	0x3db6818a	0.08911426
3	0xbe3afdc1	-0.18260862
4	0xbdf0541a	-0.11734791
5	0x3edda8c6	0.43292826
6	0x3ebb0c2e	0.3653273
7	0xbbbc8b5b	-0.005753917
8	0x3ea2391d	0.316842
9	0xbe8381aa	-0.25684863
10	0x3ca9b4ba	0.02071606
11	0xbe01ac56	-0.12663397
12	0x3ef05b54	0.46944678
13	0x3e95fefa	0.29296094
14	0x3d3332d8	0.04374966
15	0x3d87f160	0.066378355
16	0xbed8e649	-0.42363194
17	0xbe9048d9	-0.28180578
18	0x3e6d5331	0.23176266
19	0xbe0e29ed	-0.13883181
20	0x3e0e14b6	0.13875088
21	0x3eedafcf	0.46423194
22	0x3edd7314	0.4325186
23	0x3eb150e2	0.3463202

blazeBlock.0.mix_branch1.1.running_var f4 [24]
0	0x3c6b03d0	0.014344171
1	0x3e9cba3d	0.3061084
2	0x3cce330e	0.02517083
3	0x3dbe50f9	0.09292788
4	0x3cd1706b	0.0255663
5	0x3dadc550	0.084849
6	0x3e84001a	0.25781327
7	0x3d1d6841	0.038429502
8	0x3e4857fb	0.19564812
9	0x3e121373	0.14265232
10	0x3b6cb742	0.0036119972
11	0x3ccd4662	0.025057975
12	0x3e46905a	0.19391003
13	0x3e7a8c12	0.24467495
14	0x3bba52fa	0.005686161
15	0x3d235507	0.03987601
16	0x3e8293c0	0.2550335
17	0x3e45bc76	0.19310173
18	0x3dcabdc6	0.09899478
19	0x3c0edb25	0.00871924
20	0x3d8e71d3	0.06955304
21	0x3e91cc6d	0.28476277
22	0x3de81584	0.11332229
23	0x3e291cdf	0.1651492

blazeBlock.0.mix_branch1.2.weight f4 [24, 24, 1, 1]
0	0x3d5f1c49	0.054470334
1	0xbe2c2159	-0.16809596
2	0xbe736a60	-0.23771048
3	0xbe514aef	-0.20438741
4	0x3da8653a	0.082224324
5	0x3dae8e84	0.085232764
6	0xbe56918c	-0.20953959
7	0xbd4334f7	-0.047657933
8	0xbec46337	-0.38356945
9	0x3cc1fefc	0.023681156
10	0x3e47e073	0.19519214
11	0xbe3428fa	-0.17593756
12	0xbdf68149	-0.12036378
13	0xbd2e6ff0	-0.04258722
14	0xbd1a2bb5	-0.03763934
15	0xbc5dc753	-0.013536292
16	0x3cbcfcb3	0.023069715
17	0xbea722ae	-0.32643646
18	0x3db47cf0	0.088128924
19	0xbddb6924	-0.10713413
20	0x3e3fade3	0.18718676
21	0xbe095ad9	-0.13413562
22	0x3e33d1d9	0.1756052
23	0xbe4c7fdd	-0.19970651
24	0x3e473993	0.19455557
25	0xbd54c5be	-0.051946394
26	0xbdcb5919	-0.099291034
27	0xbdf3c72a	-0.11903222
28	0x3cdc7ca5	0.026914904
29	0xbcd13344	-0.02553714
30	0xbce9a5e2	-0.028521482
31	0x3ec2afdb	0.38024792
32	0xbc5ed870	-0.013601407
33	0x3b2c8bb8	0.0026328396
34	0x3d53e97b	0.051736336
35	0x3e2f9f66	0.1715065
36	0x3e495828	0.19662535
37	0xbee3c39f	-0.44485185
38	0x3c1ddfe1	0.009635896
39	0xbe05ee46	-0.13079175
40	0xbd4ac271	-0.04950184
41	0xbe2f8f35	-0.17144473
42	0xbdc2f439	-0.09519238
43	0x3e14c461	0.14528038
44	0xbc25a3d2	-0.010109859
45	0xbb8ede6e	-0.004360012
46	0xbd681f00	-0.05667019
47	0x3d480799	0.04883537
48	0x3c0824cf	0.008309557
49	0xbe56381b	-0.2091984
50	0xbe78880f	-0.24270652
51	0xbdad792f	-0.084703796
52	0xbdae4843	-0.085098766
53	0xbcc4af83	-0.024009472
54	0x3ddc0f38	0.1074509
55	0xbc4de2d3	-0.012566286
56	0xbdd506d0	-0.1040169
57	0x3d8ea86d	0.069657184
58	0x3e0ba54e	0.13637277
59	0x3e25d256	0.16193518
60	0x3c918ce4	0.017767377
61	0xbe90ad24	-0.28257096
62	0xbd590fc1	-0.05299354
63	0x3ea43c8e	0.3207745
64	0x3e8d3fcb	0.27587733
65	0x3e6b7897	0.2299522
66	0xbdc318cc	-0.09526214
67	0xbe80d01b	-0.25158772
68	0x3e097536	0.13423619
69	0xbbed3176	-0.007238562
70	0xbc127081	-0.008937956
71	0x3c908cd2	0.017645273
72	0x3e395dac	0.18102139
73	0xba028d23	-0.00049801375
74	0x3e2985bb	0.1655492
75	0x3dc86834	0.097855
76	0xbd2198b2	-0.039452262
77	0x3c1423bb	0.009041722
78	0xbd884910	-0.066545606
79	0x3e7cbc31	0.24681164
80	0xbd5685ef	-0.052373823
81	0xbd164fb8	-0.03669712
82	0x3d944d44	0.072413
83	0xbde46744	-0.11152509
84	0x3eccc3ce	0.39993137
85	0xbecc4a61	-0.39900497
86	0xbd070e2c	-0.0329725
87	0xbe9049c5	-0.28181282
88	0x3ea0d57d	0.3141288
89	0x3e4742e9	0.19459118
90	0x3e33484e	0.17508051
91	0x3d7c1ef3	0.061552953
92	0x3dd50c61	0.10402752
93	0xbdb4d069	-0.088288136
94	0xbe13eff0	-0.14446998
95	0x3d1fe8ae	0.03904026
96	0xbd280ae3	-0.041026007
97	0xbdedc088	-0.11608988
98	0x3cc44e09	0.023962991
99	0x3e713bfe	0.23558041
100	0xbc85a16e	-0.016312327
101	0x3d8b6a39	0.0680737
102	0x3ba1b40f	0.0049347947
103	0xbd7a19e4	-0.061059847
104	0xbe93398e	-0.28754848
105	0x3c515f8b	0.012779127
106	0x3dcb079f	0.09913563
107	0xbe372d64	-0.17888409
108	0x3df6d9fb	0.12053295
109	0x3d1499f5	0.036279637
110	0x3d6681ec	0.056276247
111	0xbec7b3a9	-0.39004257
112	0x3bceedd9	0.0063149747
113	0x3e14e7da	0.1454157
114	0x3d69def7	0.0570974
115	0xbe4e9c0a	-0.20176712
116	0xbdc311ac	-0.09524855
117	0xbe2928fd	-0.16519542
118	0xbe58d186	-0.21173677
119	0xbe8aaa98	-0.27083278
120	0x3e3815b4	0.17977029
121	0x3e75cfdb	0.24005072
122	0x3dfc2b95	0.12313
123	0x3e696bb9	0.22794999
124	0x3e86e22b	0.26344427
125	0xbe4e7e23	-0.20165305
126	0xbe0655ca	-0.13118663
127	0xbc56bf84	-0.013107184
128	0x3cbcc0ae	0.023041096
129	0xbd65945d	-0.056049693
130	0x3e2431f8	0.16034687
131	0x3e1ce63e	0.15322205
132	0xbcc26278	-0.023728594
133	0xbd97222c	-0.07379565
134	0x3da99281	0.082798965
135	0x3ca663e3	0.020311302
136	0x3e2191a1	0.1577821
137	0x3e1ce961	0.15323402
138	0x3d91986f	0.071091525
139	0x3e8e42cd	0.2778534
140	0x3df91f65	0.12164191
141	0x3d075ce7	0.033047583
142	0xbd75cf19	-0.060011957
143	0x3e96e0f3	0.29468498
144	0x3d4de026	0.050262593
145	0x3cf43848	0.029811993
146	0xbce68c5f	-0.028143106
147	0xbe10b21b	-0.14130442
148	0x3d884f3b	0.06655737
149	0xbda58d07	-0.080835395
150	0x3d7820e7	0.060578253
151	0x3e088121	0.13330509
152	0x3d04323a	0.032274462
153	0xbd8f5076	-0.069977686
154	0x3d9849cf	0.07435953
155	0xbbe925e4	-0.0071151126
156	0x3e186e5e	0.14885852
157	0xbdadcd3c	-0.08486411
158	0xbe811a7a	-0.25215513
159	0x3dff43f9	0.12464137
160	0xbdbb2948	-0.09138733
161	0xbd777834	-0.06041737
162	0x3ddd7358	0.10813016
163	0x3e10c22f	0.14136575
164	0xbd5d4b64	-0.054026976
165	0x3de0f5fb	0.10984417
166	0x3d5799d8	0.05263695
167	0xbf446b64	-0.76726365
168	0x3e333a57	0.17502724
169	0xbeb53edd	-0.35399523
170	0x3e9668d1	0.29376844
171	0xbcc7d1ad	-0.024391973
172	0xbd72c68c	-0.05927138
173	0xbea7a681	-0.3274422
174	0x3deba5b1	0.115062125
175	0x3dc1ec5e	0.094689116
176	0x3ca56a32	0.02019224
177	0x3b6ae7c4	0.003584371
178	0xbe5a26fb	-0.21303932
179	0xbd868ced	-0.06569848
180	0xbcc9bc20	-0.024625838
181	0x3d5562a2	0.052096017
182	0xbd6572cf	-0.056017693
183	0xbdf5f23c	-0.12009093
184	0x3d935722	0.07194354
185	0xbc2f3476	-0.01069366
186	0xbe09c51c	-0.13454098
187	0x3cd764f4	0.026293255
188	0xbe60c143	-0.21948723
189	0xbedd85f5	-0.43266264
190	0xbc2ff6c7	-0.010739989
191	0x3d3768d4	0.044777706
192	0xbe34b7ac	-0.1764819
193	0x3ae4a470	0.0017444026
194	0xbd010dd1	-0.031507317
195	0xbe282d86	-0.16423616
196	0xbe1a2d64	-0.15056378
197	0x3e31ebdc	0.1737513
198	0xbf052839	-0.520145
199	0x3c4b9632	0.012425946
200	0xbc2e8485	-0.010651712
201	0x3d5ca2b6	0.05386611
202	0x3e2386a7	0.15969335
203	0xbe562188	-0.20911229
204	0x3e1db397	0.1540054
205	0xbd7aa55a	-0.061192848
206	0xbe10445e	-0.1408858
207	0xbd2792d1	-0.0409115
208	0x3d39993d	0.045312155
209	0xbd205406	-0.03914263
210	0xbd1b0f67	-0.037856486
211	0x3dc99fd8	0.09844941
212	0xbd823d19	-0.0635931
213	0x3dd5cc57	0.10439365
214	0x3d279de9	0.04092208
215	0x3e85f73b	0.26165184
216	0x3db2b27b	0.08725449
217	0x3c71fe52	0.014770107
218	0x3de9d816	0.11418168
219	0xbe35e3ad	-0.17762633
220	0xbd31a511	-0.04337031
221	0x3db448d3	0.088029526
222	0xbd96e6ab	-0.07368215
223	0x3e3aafd8	0.18231142
224	0x3da8f947	0.08250671
225	0x3f711473	0.9417183
226	0xbd9bd99f	-0.07609867
227	0x3e19528e	0.14972898
228	0xbd1ae14f	-0.037812527
229	0xbe0c09a1	-0.13675548
230	0xbb48964a	-0.0030607157
231	0xbdb058d2	-0.08610691
232	0x3ce7d925	0.028301785
233	0x3c830f14	0.0159984
234	0xbdf38b01	-0.11891747
235	0x3c38a873	0.01127063
236	0x3e0d1c5a	0.13780347
237	0x3dc77eb9	0.09740967
238	0x3e3fe498	0.18739545
239	0xbe381b25	-0.17979105
240	0xbe3910bc	-0.1807279
241	0x3e78671c	0.24258083
242	0xbd9adefb	-0.075620614
243	0x3e15e6c7	0.14638816
244	0xbe4086d3	-0.18801431
245	0xbbc8badb	-0.0061257905
246	0xbd189af5	-0.037257154
247	0x3dcd8e24	0.10036877
248	0x3d2e1b5c	0.04250656
249	0x3d84ab37	0.06477969
250	0xbd56c4aa	-0.052433647
251	0x3d5ec77e	0.05438947
252	0x3e656d4c	0.22404975
253	0xbd4967cc	-0.049171254
254	0x3c9dc0d3	0.019256985
255	0xbe1c165e	-0.15242907

blazeBlock.0.mix_branch1.2.bias f4 [24]
0	0xbd973336	-0.073828146
1	0xbe25d781	-0.1619549
2	0x3daae79c	0.08344957
3	0xbe181744	-0.14852625
4	0xbd316c8d	-0.043316413
5	0x3db9b594	0.090678364
6	0x3e1d7780	0.15377617
7	0x3d3d0fc8	0.04615763
8	0xbd9bf2f8	-0.07614702
9	0xbdb5d5ed	-0.08878694
10	0x3deaa464	0.11457136
11	0x3d1b2070	0.03787273
12	0x3e2ff4de	0.17183253
13	0x3d9d6e2c	0.07687029
14	0x3e2862a4	0.16443878
15	0xbe286ec2	-0.16448501
16	0x3e280a20	0.16410112
17	0xbdc012b7	-0.093785696
18	0xbd5fcf46	-0.05464103
19	0x3aa03abc	0.0012224535
20	0xbd1ccaed	-0.038279463
21	0x3d256248	0.04037693
22	0x3e3a4286	0.18189439
23	0xbdf9c6c1	-0.121961124

blazeBlock.0.mix_branch1.3.weight f4 [24]
0	0x3f0f9b4f	0.5609636
1	0x3e7274dd	0.23677392
2	0x3f2d8183	0.67775744
3	0x3f79a4a2	0.97516835
4	0x3f89d87d	1.0769192
5	0x3f816c49	1.0111171
6	0x3f8c63d8	1.096797
7	0x3f568a0a	0.8380438
8	0x3f602cea	0.87568533
9	0x3f7f44c9	0.9971433
10	0x3f77f663	0.9686033
11	0x3f78bab4	0.97159886
12	0x3e82c8b8	0.2554376
13	0x3f872608	1.0558481
14	0x3f1da6c8	0.61582613
15	0x3ed75bf2	0.42062336
16	0x3f152ee0	0.5827465
17	0x3ee64d63	0.44980916
18	0x3f0559c0	0.5209007
19	0x3ebdc755	0.3706614
20	0x3ea87278	0.32899833
21	0x3d496527	0.049168732
22	0x3f588d35	0.84590465
23	0x3f701e32	0.93796074

blazeBlock.0.mix_branch1.3.bias f4 [24]
0	0x3dbdec6b	0.09273609
1	0xbe054360	-0.13013983
2	0xbd183d90	-0.037168086
3	0x3e131ce3	0.14366488
4	0xbdf535ac	-0.11973128
5	0xbd5c10bf	-0.053726908
6	0x3c2efd4a	0.010680506
7	0xbdb0bef1	-0.08630169
8	0xbd443687	-0.047903564
9	0x3d0c7dd9	0.034299705
10	0xbd02cc1d	-0.03193294
11	0xbd6cb7ca	-0.057792462
12	0xbdf5f03e	-0.12008713
13	0x3d622023	0.05520643
14	0xbc44e031	-0.012016342
15	0xbe24b3b4	-0.16084176
16	0xbc8578e9	-0.016293006
17	0xbcb91970	-0.022595137
18	0xbe00ba78	-0.12571132
19	0xbe0faac7	-0.1402999
20	0xbe37509d	-0.17901845
21	0xbc6a9493	-0.014317649
22	0xbe2128b3	-0.15738182
23	0xbd3d0d69	-0.046155367

blazeBlock.0.mix_branch1.3.running_mean f4 [24]
0	0xbd973318	-0.07382792
1	0xbe25d7ab	-0.16195552
2	0x3daae7d1	0.08344997
3	0xbe18173b	-0.14852612
4	0xbd316c73	-0.043316316
5	0x3db9b59f	0.090678446
6	0x3e1d778f	0.15377639
7	0x3d3d0f78	0.04615733
8	0xbd9bf31f	-0.07614731
9	0xbdb5d5dc	-0.08878681
10	0x3deaa434	0.114571005
11	0x3d1b204c	0.037872598
12	0x3e2ff4bd	0.17183204
13	0x3d9d6e0f	0.07687008
14	0x3e2862ac	0.1644389
15	0xbe286ec4	-0.16448504
16	0x3e280a3b	0.16410153
17	0xbdc012db	-0.093785964
18	0xbd5fcf73	-0.0546412
19	0x3aa04208	0.001222671
20	0xbd1cca2a	-0.038278736
21	0x3d256232	0.04037685
22	0x3e3a42a8	0.1818949
23	0xbdf9c6cd	-0.12196121

blazeBlock.0.mix_branch1.3.running_var f4 [24]
0	0x3e1dae04	0.15398413
1	0x3d626318	0.055270284
2	0x3db50daf	0.088405006
3	0x3e275789	0.16341986
4	0x3dd773b0	0.105201125
5	0x3e325afa	0.17417517
6	0x3eb79295	0.3585402
7	0x3dcf9ac8	0.10136944
8	0x3e1aa8e8	0.15103495
9	0x3f66e3d3	0.9019138
10	0x3d82fcb8	0.063958585
11	0x3dfa7607	0.12229543
12	0x3e551499	0.20808639
13	0x3dfbc026	0.12292509
14	0x3df7f880	0.121079445
15	0x3e9e8ca6	0.3096668
16	0x3e721829	0.23642029
17	0x3e805e1b	0.25071797
18	0x3e582180	0.21106529
19	0x3d8d4d4f	0.06899511
20	0x3e7b43a5	0.24537523
21	0x3ddd0595	0.1079208
22	0x3e38828d	0.18018551
23	0x3d90802d	0.070556976

blazeBlock.1.mix_branch1.0.mixed_depthwise_conv.0.weight f4 [12, 1, 3, 3]
0	0x3ed2fc3a	0.4120806
1	0xbd310ab1	-0.043223087
2	0x3ca076af	0.019587843
3	0xbbb366b2	-0.0054748887
4	0xbe475784	-0.19466978
5	0xbe1b0606	-0.15139017
6	0xbe173c1c	-0.14769024
7	0xbd44c180	-0.0480361
8	0xbe6310ad	-0.2217433
9	0x3e065c12	0.1312106
10	0xbde32672	-0.11091317
11	0xbe580f42	-0.2109957
12	0x3d7430e7	0.05961695
13	0xbe5c74e4	-0.21528965
14	0xbe1b179f	-0.1514573
15	0x3f044c51	0.5167895
16	0x3d2d745e	0.042347305
17	0x3dca29c9	0.09871251
18	0xbe2baa22	-0.1676412
19	0xbde38827	-0.111099534
20	0x3d77c7d2	0.060493298
21	0xbdd809a3	-0.10548713
22	0xbe902c9a	-0.28159028
23	0x3dac0bef	0.08400714
24	0xbe8196d6	-0.2531039
25	0xbddd00b8	-0.10791153
26	0x3e1f7651	0.15572478
27	0x3e01dc9b	0.1268181
28	0x3ead1b79	0.33810022
29	0x3ee14402	0.43997198
30	0xbcf209db	-0.029545715
31	0x3d058fb8	0.032607764
32	0x3e878123	0.2646571
33	0xbe941851	-0.28924802
34	0xbe87b35f	-0.26504037
35	0xbe54f5ef	-0.20796941
36	0xbe19440b	-0.14967363
37	0x3e91ceb7	0.28478023
38	0x3ddfb730	0.10923612
39	0x3e863736	0.26213998
40	0x3e93c62e	0.28862137
41	0x3e567be6	0.20945701
42	0x3e1519b5	0.14560588
43	0xbc075896	-0.008260867
44	0x3e44dcaa	0.19224802
45	0x3d8b0868	0.06788713
46	0x3cdaa70b	0.02669098
47	0xbd855a18	-0.06511325
48	0xbdbca8ab	-0.09211858
49	0xbd7a113e	-0.0610516
50	0xbe8c23e9	-0.27371147
51	0xbdc78394	-0.097418934
52	0xbe9de571	-0.30839112
53	0x3cd6027a	0.026124228
54	0x3bdcfce9	0.0067440164
55	0x3d25aba1	0.04044688
56	0xbdee1167	-0.11624413
57	0x3e999c12	0.30001885
58	0xbbdd2a62	-0.006749437
59	0x3e64bf09	0.22338499
60	0x3e8f0baf	0.279386
61	0x3ea062df	0.31325433
62	0x3e0439bf	0.12912653
63	0x3e6a6de6	0.22893485
64	0x3e9c3bb3	0.30514297
65	0x3e03682d	0.12832709
66	0x3e19d18c	0.15021342
67	0xbe1429e0	-0.14469099
68	0xbd155fae	-0.0364682
69	0x3df032f8	0.117284715
70	0x3dcf1cff	0.101129524
71	0xbbfbf060	-0.007688567
72	0xbeab2916	-0.33429784
73	0xbd581601	-0.05275536
74	0x3d928ce7	0.07155781
75	0x3e0f2040	0.13977146
76	0xbea83931	-0.32856134
77	0x3c7d68ed	0.015466911
78	0xbeb39b6c	-0.35079515
79	0xbea588c2	-0.323309
80	0xbea54789	-0.3228114
81	0x3dfe6936	0.12422411
82	0x3e91698b	0.28400835
83	0x3dcb7a92	0.09935488
84	0x3e6746a3	0.2258554
85	0x3ea41a97	0.32051536
86	0x3e262d9e	0.16228339
87	0x3e823cac	0.25436914
88	0x3d54b3b8	0.051929206
89	0x3d22ca4e	0.039743714
90	0xbe127897	-0.14303814
91	0xbdf6969a	-0.12040444
92	0xbea76ad4	-0.3269869
93	0xbe7587a2	-0.23977521
94	0x3de35494	0.11100116
95	0x3d6a8a16	0.057260595
96	0x3e7f4d6d	0.2493188
97	0xbe16259c	-0.14662784
98	0x3d7e52f4	0.06209083
99	0x3c7b431a	0.0153358225
100	0x3e7c27a1	0.24624492
101	0x3d89cd01	0.067285545
102	0x3e96da47	0.29463407
103	0x3e1983a8	0.14991629
104	0x3e4b50c5	0.1985503
105	0x3e9e55e0	0.30924892
106	0x3cf7bd88	0.030241743
107	0x3e1bf0d1	0.15228583

blazeBlock.1.mix_branch1.0.mixed_depthwise_conv.1.weight f4 [12, 1, 5, 5]
0	0xbbebd1be	-0.007196634
1	0x3e73bd71	0.23802735
2	0x3ecc2311	0.39870504
3	0x3edce989	0.43146923
4	0x3e7c5fde	0.24645945
5	0xbddb1059	-0.106964774
6	0xbc95967c	-0.018260233
7	0x3e623c15	0.22093232
8	0x3e62ac3c	0.22136015
9	0x3e604ee5	0.21905096
10	0xbca19a8b	-0.019727012
11	0xbdba513e	-0.09097527
12	0x3d465cda	0.048428394
13	0x3e25dbe7	0.16197167
14	0x3e4dec1b	0.20109598
15	0xbe88b37e	-0.26699442
16	0xbdf82647	-0.12116676
17	0xbdf95410	-0.12174237
18	0xbdd1cd18	-0.10244197
19	0xbcb69715	-0.022288838
20	0xbe75a8cc	-0.23990172
21	0xbedf6859	-0.43634298
22	0xbeb3c6ef	-0.35112712
23	0xbec76c0f	-0.3894963
24	0xbdd32dd3	-0.10311475
25	0xbd819c6f	-0.063286655
26	0xbd290d6f	-0.041272577
27	0xbe7b5455	-0.24543889
28	0xbe87333a	-0.2640627
29	0xbe2a3882	-0.16623119
30	0x3b3f9666	0.0029233932
31	0xbc7dfc78	-0.015502088
32	0xbc649616	-0.013951799
33	0xbe362ffc	-0.17791742
34	0xbe7f7d2b	-0.24950092
35	0x3c80348d	0.015650058
36	0xbcee8906	-0.029118072
37	0xbd66dbfa	-0.05636213
38	0xbdcd2ca4	-0.1001828
39	0xbd8e903f	-0.069611065
40	0x3dc5ac84	0.09652045
41	0x3d85958f	0.06522667
42	0xbdc13779	-0.09434409
43	0xbdf69a9d	-0.12041209
44	0xbd8e8311	-0.06958593
45	0x3ccca294	0.024979867
46	0x3e2cf363	0.1688972
47	0x3dbcc5cb	0.092174135
48	0xbde7d417	-0.1131975
49	0x3d9ce3ec	0.0766066
50	0xbd00da4b	-0.03145818
51	0x3c8c8863	0.017154878
52	0x3e8a9bb0	0.27071905
53	0x3de35419	0.11100025
54	0x3e54dbac	0.20786923
55	0x3df74ddd	0.12075398
56	0x3e04b6f5	0.12960418
57	0x3e1b6a93	0.15177374
58	0x3e130017	0.14355503
59	0x3e215680	0.15755653
60	0xbd8bfc1f	-0.06835198
61	0x3c2e6270	0.0106435865
62	0x3d899e36	0.067196295
63	0x3e3a3700	0.18185043
64	0x3d296e4c	0.041364953
65	0x3c900c85	0.017584095
66	0x3c678cca	0.014132688
67	0x3c8912ae	0.01673254
68	0xbd7390df	-0.05946433
69	0xbd52ba12	-0.05144698
70	0xbe5c7bf8	-0.21531665
71	0xbe1c0299	-0.15235366
72	0xbdabd92c	-0.083910316
73	0xbdd84ce9	-0.105615444
74	0x3c533dd6	0.012893161
75	0xbdadf9db	-0.08494922
76	0xbe44f3ee	-0.19233677
77	0xbde90ca5	-0.11379365
78	0xbe8a21de	-0.26978964
79	0xbe6d6356	-0.23182425
80	0xbd58da33	-0.052942466
81	0xbd4edff9	-0.050506566
82	0xbe220936	-0.15823826
83	0xbdabfec1	-0.083982
84	0xbd77b259	-0.06047282
85	0x3e68917e	0.22711751
86	0x3cd0fe32	0.025511835
87	0x3df1d2c4	0.118077785
88	0x3dbdd11d	0.09268401
89	0xbe4a07e3	-0.19729571
90	0x3e9f4425	0.31106678
91	0x3e2f32da	0.17109242
92	0x3e937d55	0.28806558
93	0x3c8a156e	0.016855922
94	0xbdd36f73	-0.103239916
95	0x3e839488	0.25699258
96	0x3ea94774	0.33062327
97	0x3e1b3d39	0.15160073
98	0x3de4c4f7	0.111703806
99	0x3e158c02	0.1460419
100	0x3e7a2891	0.24429537
101	0x3d4afe1e	0.04955875
102	0xbd9490fc	-0.07254216
103	0x3e4b32ff	0.19843672
104	0x3dc8deb6	0.09808104
105	0xbc9d38a2	-0.019192044
106	0xbe163caf	-0.14671586
107	0xbdd0c8dc	-0.10194561
108	0xbdec1be7	-0.115287594
109	0x3d72ccc6	0.05927732
110	0xbe169d2a	-0.14708391
111	0xbe211af8	-0.15732944
112	0xbdc338c0	-0.095323086
113	0xbe72f221	-0.23725177
114	0x3d5b04aa	0.053471245
115	0xbde970b1	-0.11398447
116	0xbdce1cf1	-0.10064114
117	0xbd5d97ab	-0.05409972
118	0xbe2ab5fd	-0.16670986
119	0xbd9ad082	-0.07559301
120	0xbe18a052	-0.14904907
121	0xbe38d05a	-0.1804823
122	0xbc93a148	-0.01802124
123	0xbd1d4fc6	-0.038406156
124	0x3e0b1585	0.13582428
125	0x3c84339a	0.016137887
126	0x3ddbb175	0.107272066
127	0xbd84fdbf	-0.06493711
128	0x3e04b46e	0.12959453
129	0x3e2d786b	0.16940467
130	0xbdd39916	-0.10331933
131	0xbcd07894	-0.025448121
132	0x3e4eb9ca	0.2018806
133	0x3d8d4178	0.06897253
134	0xbd84d1c6	-0.064853236
135	0x3d8863be	0.06659649
136	0x3d45a99d	0.04825746
137	0x3df04d79	0.11733527
138	0x3d837a87	0.064198546
139	0x3e569908	0.20956814
140	0x3cd42975	0.025898675
141	0x3d5fae8b	0.054609817
142	0x3e0e5a04	0.13901526
143	0x3e6473b1	0.22309758
144	0x3e68d5e3	0.22737841
145	0xbd9cdecc	-0.07659683
146	0x3d32477f	0.043525215
147	0x3e0b95e1	0.13631393
148	0x3c5fd199	0.013660812
149	0x3e670888	0.22561848
150	0xbdc19afd	-0.0945339
151	0x3c9f852e	0.019472685
152	0xbe78ec19	-0.24308814
153	0xbd5de797	-0.05417594
154	0x3e4960ab	0.19665782
155	0x3daa764e	0.08323346
156	0x3c384ba8	0.011248507
157	0xbb5ce080	-0.0033703148
158	0xbe567d2e	-0.2094619
159	0xbd346bba	-0.04404805
160	0xbd677eeb	-0.056517523
161	0xbdd89e67	-0.10577088
162	0xbe0db6c9	-0.13839258
163	0xbe8b1666	-0.27165526
164	0xbe035ea4	-0.12829071
165	0x3e1e2ae5	0.1544605
166	0x3e754d7a	0.23955336
167	0xbe028910	-0.12747598
168	0xbe4e1fff	-0.20129393
169	0xbd9058ea	-0.07048209
170	0x3e9802db	0.2968968
171	0x3ec58f7d	0.38586035
172	0x3caba5fb	0.02095317
173	0xbcebc9f8	-0.02878283
174	0xbdc2d0dd	-0.09512494
175	0x3e03906a	0.12848058
176	0x3d7a75b7	0.061147418
177	0xbd78a786	-0.060706638
178	0x3e009962	0.12558511
179	0x3de1f37a	0.110327676
180	0xbdefae21	-0.11703134
181	0xbd3ffdbc	-0.04687284
182	0x3dc23aa4	0.09483841
183	0x3e24ed84	0.1610623
184	0x3e36aa86	0.17838487
185	0xbdbad9f8	-0.091236055
186	0x3cdbe898	0.026844308
187	0xbd1cf232	-0.038316913
188	0x3a951d16	0.0011376466
189	0x3e0ff6a5	0.14058931
190	0xbe42a28f	-0.19007324
191	0x3ca55443	0.02018178
192	0x3d9d576a	0.076826885
193	0x3df2916a	0.11844142
194	0x3e5c55ee	0.21517155
195	0xbd84c116	-0.06482141
196	0x3daf9c2f	0.085747115
197	0x3dee1eda	0.11626978
198	0xbd84eb87	-0.06490236
199	0x3dcc8fb7	0.09988349
200	0x3df0ba8e	0.117543325
201	0x3cce2fed	0.025169337
202	0x3d27dd2f	0.04098242
203	0x3c3f9e01	0.011695386
204	0x3cb67ae5	0.022275398
205	0x3d229fbd	0.03970312
206	0xbe61e104	-0.22058493
207	0xbdc6386d	-0.09678731
208	0xbdbfc1e1	-0.09363151
209	0xbcfd5c42	-0.030927781
210	0xbdf9c266	-0.12195282
211	0xbdf45f81	-0.119322784
212	0xbe369db9	-0.17833604
213	0xbddb6bad	-0.10713897
214	0xbd2f4dc3	-0.04279877
215	0xbdcf7d51	-0.10131324
216	0xbdf63003	-0.12020876
217	0xbe3f8f24	-0.18706948
218	0xbe40d1d0	-0.18830037
219	0xbe57b133	-0.2106369
220	0x3c3675ac	0.011136454
221	0xbe419e1d	-0.18907972
222	0xbe14a3d8	-0.14515626
223	0xbe030662	-0.12795404
224	0xbe3b5007	-0.18292247
225	0xbddac5bf	-0.10682248
226	0xbe4a3ec0	-0.197505
227	0xbd400922	-0.04688371
228	0xbe8632d7	-0.26210663
229	0xbe4863a2	-0.19569257
230	0xbe12555c	-0.14290375
231	0xbe03d2eb	-0.12873428
232	0x3de06fef	0.1095885
233	0xbe3c1bc7	-0.18369971
234	0xbd5fc5d7	-0.054632034
235	0xbd8fb76f	-0.07017409
236	0x3da8382b	0.08213838
237	0x3c223d61	0.009902329
238	0xbe288a52	-0.16459015
239	0x3dea1651	0.11430038
240	0xbe47c4d5	-0.19508679
241	0x3d50aad2	0.050944157
242	0xbc042c41	-0.008067192
243	0xbd4966a5	-0.049170155
244	0x3d47a94d	0.048745442
245	0xbc5c48ec	-0.01344512
246	0xbd9d2948	-0.076738894
247	0xbe3e753d	-0.1859941
248	0x3b8b8371	0.0042576124
249	0xbd43277f	-0.04764509
250	0x3cdba584	0.026812322
251	0x3cc977a8	0.02459319
252	0x3da72d50	0.081629395
253	0x3dd3b665	0.10337523
254	0xbb10664d	-0.0022033632
255	0xbbe1607d	-0.0068779574

blazeBlock.1.mix_branch1.1.weight f4 [24]
0	0x3f1d5889	0.6146322
1	0x3eeffb90	0.46871614
2	0x3ea6669a	0.32500154
3	0x3f1da7ba	0.61584055
4	0x3ec9e67b	0.39433655
5	0x3ee64e09	0.4498141
6	0x3f2452df	0.6418895
7	0x3efc9bff	0.49337766
8	0x3f09689a	0.53675234
9	0x3f334d55	0.70039874
10	0x3e4e2a72	0.20133379
11	0x3f06768e	0.5252465
12	0x3f6b3a69	0.91886
13	0x3f078b68	0.5294709
14	0x3f1139d2	0.5672885
15	0x3f5fa86c	0.87366366
16	0x3f281482	0.6565629
17	0x3f2cd434	0.67511296
18	0x3f1e00ce	0.6171998
19	0x3efeba43	0.4975148
20	0x3f44d036	0.76880205
21	0x3efdabbf	0.49545094
22	0x3f0ec62a	0.55771124
23	0x3eb60e61	0.35557845

blazeBlock.1.mix_branch1.1.bias f4 [24]
0	0x33ce73af	9.613665e-08
1	0xb34b717b	-4.736783e-08
2	0xb3611a8a	-5.2411032e-08
3	0xb432d532	-1.6655102e-07
4	0xb289b823	-1.6032635e-08
5	0x335c89d5	5.13481e-08
6	0x34081e12	1.2676927e-07
7	0x339641dc	6.996899e-08
8	0x33eea686	1.1113029e-07
9	0x3349a1e2	4.694619e-08
10	0x32c99065	2.3465143e-08
11	0x31aed551	5.0883178e-09
12	0xb212a28c	-8.535277e-09
13	0xb38155b1	-6.022618e-08
14	0x313d95cb	2.7588267e-09
15	0xb2a6cfda	-1.9419463e-08
16	0x3404cfb2	1.2369017e-07
17	0xb2d3ba8e	-2.4648468e-08
18	0x3286f2d1	1.5710073e-08
19	0x331437e0	3.4509753e-08
20	0xb1956c7d	-4.3488044e-09
21	0x32232c25	9.497886e-09
22	0xb4255763	-1.5398614e-07
23	0x3481ef59	2.420227e-07

blazeBlock.1.mix_branch1.1.running_mean f4 [24]
0	0xbd21d54a	-0.03951005
1	0xbbef582e	-0.007304213
2	0xbd32af86	-0.043624423
3	0x3da7e831	0.08198584
4	0x3e1f6830	0.15567088
5	0xbde09a66	-0.10966949
6	0x3e5230b1	0.20526387
7	0x3d7731e6	0.06035032
8	0xbe0c68d3	-0.13711862
9	0x3e74cb47	0.23905669
10	0xbd81bf80	-0.06335354
11	0x3e2de1a7	0.16980611
12	0x3b04682c	0.0020203693
13	0xbe89f769	-0.2694657
14	0x3d5e90ed	0.05433743
15	0xbcfc82a4	-0.030824013
16	0xbd555bdf	-0.05208957
17	0x3d26975a	0.040671684
18	0x3bd492ce	0.006487227
19	0xbd4459dd	-0.047937263
20	0x3e13db57	0.1443914
21	0x3c360919	0.0111105675
22	0xbd5ad832	-0.053428836
23	0xbe271869	-0.16317905

blazeBlock.1.mix_branch1.1.running_var f4 [24]
0	0x3ca2efde	0.019889768
1	0x3b411567	0.002946222
2	0x3d426f57	0.047469463
3	0x3de3a483	0.111153625
4	0x3e39f233	0.18158798
5	0x3dfe96cf	0.12431108
6	0x3e06bebe	0.131587
7	0x3db71c6f	0.0894097
8	0x3e411b79	0.18858136
9	0x3e0a7128	0.13519728
10	0x3d10bb90	0.035335124
11	0x3ea2920a	0.31752044
12	0x3c943ab4	0.018094398
13	0x3eabb30b	0.33535036
14	0x3d9c635c	0.07636139
15	0x3d2318a7	0.039818432
16	0x3da570fb	0.0807819
17	0x3d6c98e8	0.05776301
18	0x3ce0de16	0.027449649
19	0x3ca5242f	0.020158855
20	0x3d393c68	0.045223624
21	0x3a87a661	0.0010349267
22	0x3e1392be	0.14411446
23	0x3e41f7b5	0.18942149
